Model/Trainer/model/pose_classifier.tflite (tflite, 253752 bytes, 10 tensors)

model_6/pose/BiasAdd/ReadVariableOp f4 [14]
00000000: 9f94 843c 30cc 85bd f46e 4cbe 7af9 00bd
00000010: 96b2 633c 478d e2bc 19b1 6b3d 9744 3cbc
00000020: 71d2 23bc b2f3 dbbb ee38 953d 8937 063e
00000030: 344b 413d f649 66ba
0.01618415 -0.06533086 -0.199642 -0.03148792 0.013897559 -0.027655257 0.05754194 -0.0114909625
-0.009998904 -0.0067124004 0.07286249 0.13107122 0.04719086 -0.0008784825

model_6/dense_27/BiasAdd/ReadVariableOp f4 [256]
00000000: edeb 203a 6278 16bc bc4f 113e 7e9f f53c
00000010: 928c da3c 4276 e33d 8ba5 a93d 2598 4d3d
00000020: dccd 26bc 7c32 1d3e 9db9 f13d 2ab4 b23d
00000030: 68e7 c03d 7954 e53c 547a 453e 7364 753e
00000040: 121f 053e cdbb bf3d 4ac0 d33d 83c4 263d
00000050: a58b d73d c859 8f3d 1ed8 1e3e 3691 823d
00000060: 39ee 193e 805a 8dbc be4f 08be 1b9e 053c
00000070: 48d2 173d 89a0 8e3d e038 723d 82c6 e63d
00000080: bd88 343d 7aa7 533d 195f 963c 10d4 013c
00000090: 61e0 453e bd05 b53d 7123 0e3e 9026 c23d
000000a0: dd68 023e a62f dc3c f917 0e3d 9583 3d3e
000000b0: e85b c83d 669f 553c 75ae a73d 5066 8c3c
000000c0: c839 7e3e c0fd c63d 7a5f 0f3e 43de 123e
000000d0: b218 173e fecc 3c3e 1c88 a7bd 8556 de3d
000000e0: 789a b63d bcbb 8b3c 0b04 e8bd 516f b73d
000000f0: fde7 c63d 30f3 223e be98 a33d 7263 1abb
00000100: 3544 173d caf8 983d 9af9 2a3d 2723 b63d
00000110: 9fb5 5f3d 8a52 80be 3174 80bd fc35 4c3d
00000120: 7232 0c3e 8bd6 8d3d 2876 5b3d 70bc 98ba
00000130: b733 d63d 3144 983e 84f1 7dbd 2a2c 063e
00000140: 73c6 0d3d 1567 bf3d 57a9 09bb dda5 f73d
00000150: 632c ad3d 95fe e53d a615 c23d 373f 813e
00000160: ab80 d73d bc30 2d3d 0956 103e d1d4 45bd
00000170: 0f98 303d 54c4 9e3c 7674 2fbc bf15 253d
00000180: 2605 d73d 8362 133d 9807 b53d ca7e efbb
00000190: 3ab1 043c 2e84 c93c acc4 113c 7650 82bd
000001a0: cfe4 e73d 72fa 7b3d 9c24 813d 422c 14bc
000001b0: 8498 b03d b4c0 88bc ab0e 21bd 2acb 9e3d
000001c0: 088a 213e b047 063e 7082 1d3e 0d48 a93d
000001d0: fa6d 3c3b 015a c83c 8ec7 cf3d d4cb 2f3e
000001e0: 9897 a43c e1ce 4fbd 6550 833d fbdb 40bd
000001f0: d4a5 40bc 7fb0 0c3e 6979 853d c310 323e
00000200: 13a0 313d 632b cf3d 8421 7a3d e2d0 0a3e
00000210: 0e1b 823d 3937 183e 1a71 a73e 7daa 993d
00000220: 99f5 043e 49bb 17bd 4f3e a33d 7f7d e8bc
00000230: 12ff d5bc 2846 7f3d fa57 f73b 6c6d 8fbd
00000240: 36a4 0e3e b446 0bbe c825 0c3e c182 d53b
00000250: 0dd5 b93d 0e87 663d afb9 8a3d 024c 983d
00000260: c2a4 ca3d f373 523d 9f20 553d 8379 bf3d
00000270: 615a df3d a5c8 543d 77fe 993e 0c67 d43d
00000280: f09a 3c3d d26f 823d 8dfc 973c 15bc 063e
00000290: e447 bb3d f513 d43d aae7 82bc 1e05 723e
000002a0: 277d cf3d 2f5e 8a3d 312d c73d f138 ebbd
000002b0: 072d 843c 1067 e8bd 6184 343e 5463 0a3e
000002c0: b297 813d 81de aa3d f67a 7c3b aa80 883d
000002d0: 5cfc 43bd 5a8d 193e 4ae5 e93d 654c 8f3d
000002e0: 8d80 19bc 4ea1 fc3d 064f 433d 2987 a63d
000002f0: c341 063e 6eef 473e 6aa1 4d3d 2b48 643d
00000300: 0113 74bd 8727 81bd e6c3 d23d ba67 823d
00000310: 3218 f73d 56da 983d 4613 e03d f073 fb3c
00000320: 0c04 2a3e 806c 183d d2a8 cdbc de7b c63d
00000330: 393b 063d 2c8d b5bd 3d85 fc3c afef 6abd
00000340: 99c3 e63d 0d87 843d 1df4 653d 273b 08bd
00000350: 2e96 72ba 8e57 2f3e 9a01 043d 3db0 2b3e
00000360: af90 2a3d b5fc e53c 1831 463e 9ad5 08be
00000370: ab3c 6b3d 9649 e23d 5a34 933d acca aebc
00000380: 232d 5c3c c3c7 3d3d c643 123e 180e f83d
00000390: 671c 273d cb04 f83d 3609 a43d 0309 77bd
000003a0: e833 dc3d ecd3 053e 0630 b23d db67 c03c
000003b0: ab57 c5bb e58a 903d 443f 1e3e 3034 b23d
000003c0: 45e3 643d f1dc b43c 5020 db3d 0cb5 fb3d
000003d0: 3f26 e83d ac5d a03d 8a0a 433e 6f7e 283e
000003e0: dad7 6c3e 2461 1c3e a21f e93d 841f 253e
000003f0: bc14 923d cc2b f23d 8f1f e23d 857e a03d
0.00061386713 -0.009183975 0.14190573 0.029983278 0.026678357 0.1110654 0.08283528 0.050193924
-0.010180917 0.1535129 0.11802981 0.0872577 0.09419137 0.027994381 0.19284946 0.239641
0.13000134 0.09361992 0.103394106 0.040714752 0.10524682 0.06999546 0.1551213 0.06375353
0.15032281 -0.017255068 -0.13311669 0.008155371 0.037065774 0.069642134 0.05913627 0.11268331
0.044075716 0.05167339 0.018355893 0.007924095 0.19323875 0.08838985 0.13880707 0.094800115
0.12735315 0.02687819 0.03469083 0.18507226 0.09783155 0.013038492 0.08187572 0.01713863
0.2482673 0.09716368 0.14001265 0.14342599 0.14755514 0.18437573 -0.08180258 0.10856346
0.08916181 0.017057292 -0.11328896 0.08956779 0.09712217 0.15913081 0.07988118 -0.002355781
0.03693028 0.07469328 0.041741945 0.088934235 0.054616567 -0.25062972 -0.06272162 0.04985617
0.13691118 0.069256864 0.05357948 -0.0011652838 0.104590826 0.29739526 -0.061997905 0.13102785
0.034613084 0.09345833 -0.0021005475 0.12092183 0.08455732 0.11230198 0.09476785 0.25243542
0.10522588 0.042282805 0.1409532 -0.04829866 0.043113764 0.019380726 -0.010708919 0.04030394
0.10499029 0.03598262 0.08839339 -0.0073088156 0.008098895 0.024599161 0.008896988 -0.06363003
0.11322939 0.06151814 0.06305811 -0.009043755 0.0862284 -0.01669345 -0.03932063 0.07753594
0.15775311 0.13113284 0.15381789 0.08265696 0.0028752075 0.02445698 0.10145484 0.17167598
0.020091817 -0.050734404 0.064118184 -0.04708479 -0.0117582865 0.13739203 0.06517298 0.17389207
0.04336555 0.10115697 0.06106712 0.13556245 0.063528165 0.14864816 0.32703477 0.07503221
0.12984313 -0.037043843 0.07970869 -0.028380154 -0.026122604 0.062322766 0.0075483294 -0.070032924
0.13929829 -0.1360119 0.13686287 0.006515831 0.09073839 0.056281142 0.067736976 0.07436372
0.09894706 0.05138011 0.052033063 0.093493484 0.1090591 0.051949162 0.30076954 0.10371217
0.046046197 0.06368984 0.018553043 0.13157685 0.091445714 0.10355369 -0.015979607 0.23634765
0.10131293 0.06756245 0.097254165 -0.1148547 0.016134752 -0.113477826 0.17628624 0.13514453
0.06327762 0.083432205 0.003852544 0.06665166 -0.04784809 0.14995328 0.114206865 0.06996993
-0.009369028 0.12335454 0.047682784 0.081312485 0.13111024 0.19524929 0.050202765 0.055732887
-0.059588436 -0.06306367 0.10291271 0.063674405 0.12065162 0.07463519 0.10941176 0.030694932
0.16603106 0.03721285 -0.025104914 0.096915945 0.032771323 -0.08864817 0.030825252 -0.057357486
0.11267776 0.064710714 0.056141008 -0.033259537 -0.0009253946 0.17123243 0.03222809 0.16766448
0.041641887 0.028074602 0.19354665 -0.13362733 0.057430904 0.11049192 0.0718772 -0.021336876
0.013438496 0.046333086 0.14283666 0.12112063 0.04079857 0.12110289 0.08009569 -0.06031133
0.10752088 0.13069123 0.08700566 0.023487022 -0.0060224137 0.07057742 0.15453821 0.0870136
0.055880804 0.02207801 0.106995225 0.12290391 0.1133542 0.078303665 0.19046989 0.1645448
0.23129216 0.15271431 0.113829866 0.16125304 0.07132861 0.1182476 0.110411756 0.07836632

model_6/dense_26/BiasAdd/ReadVariableOp f4 [128]
00000000: d218 073e 76e6 7b3d 3d5d 353d facf b73d
00000010: efe5 003e f805 923d bb42 7a3d 88e2 4a3d
00000020: dc89 493d 7958 9d3d b596 933d a83d 5a3d
00000030: ed74 27be a6f3 9b3d 4fd9 8a3d ed63 533a
00000040: 7e23 083d cdee e33c ceec 813d 5bc7 553d
00000050: b22a a63d 1eaa f13d 5f2c 0f3d 50df f73c
00000060: 251f f13d e591 a53d f564 373d 3bd7 073d
00000070: 4bc3 183d f0d1 113d 3ec1 63bd 8105 723b
00000080: 3a96 043e 26c0 1f3d aaac 09be 3fce bd3d
00000090: 301b 803c 288a b63d 3f97 803d 947e ec3d
000000a0: 9df5 aa3d c4fe 073e 8fc7 c33d f8e2 323d
000000b0: f872 903d cece c43d 2f55 b83d 6cf5 963d
000000c0: d803 4b3d 2c61 bc3d 01e6 053c 2e01 1d3d
000000d0: 783c 423e a5c8 1d3e 38b1 4c3b 90d7 3a3d
000000e0: 80af a63d fb77 06be b420 223d 0f7a 893d
000000f0: fcff 013e 3341 683d 7ad8 84ba 1bc6 7b3d
00000100: 2c88 083b 2c7a 823d 7e24 7a3d 2290 4e3d
00000110: 8836 bcbc 3f6d 363d 1a66 023b 4fca a33b
00000120: e4f8 5c3d ebaa 933d bc9c 493d 58e6 d53d
00000130: 3724 183d 4fe2 df3d 1314 963d 1d2a 7d3d
00000140: 0548 f63c 73bf 893d dbb9 8a3d 3c07 883c
00000150: 2e95 d73c cba1 b83d 3a19 633d 76bb c63d
00000160: fe24 aa3c c1e2 1e3c 03db 873d 7191 81bc
00000170: 13e8 1cbe da1d d53d 1fc4 003d 3154 433d
00000180: 7fac 973d 9630 d7bc 33f4 783d a356 053e
00000190: 56f0 7b3d b5aa 803d 0d7f bf3d c7d6 fb3d
000001a0: ba6f 113d 6244 ba3d 7f01 953d 4951 4d3d
000001b0: 6e63 533c ab54 483d 7758 8b3c e84d c63d
000001c0: bfc3 bd3d c6bd 043e 4cf3 303d 70a6 67bb
000001d0: d007 133d 93f8 063d a2aa 7f3c 97bd 4dbd
000001e0: c582 ca3d 8108 953d b605 ba3d e524 b93d
000001f0: e947 233e 0397 5b3d d9dd 803d 62eb ff3d
0.13193062 0.06149908 0.044278372 0.08975215 0.12587713 0.07130045 0.061098795 0.049532443
0.04920374 0.076828904 0.072064795 0.053281456 -0.16353197 0.076148316 0.067797296 0.00080639013
0.033236973 0.02782383 0.06343995 0.052192073 0.08113612 0.118000254 0.034954425 0.03025785
0.117735185 0.08084468 0.044774015 0.033164244 0.03729562 0.035600603 -0.055604212 0.003692955
0.12947932 0.039001606 -0.13444772 0.09267854 0.015637964 0.0891307 0.06278848 0.1154758
0.08347628 0.13280779 0.09559547 0.043673486 0.070531785 0.09609757 0.090006225 0.07371029
0.049564213 0.091982216 0.008172513 0.038331203 0.1896838 0.15408571 0.003123356 0.045615733
0.08138943 -0.13131706 0.03958197 0.06712734 0.12695307 0.056702804 -0.0010135316 0.061468225
0.0020833118 0.06370959 0.061069958 0.050430425 -0.022975221 0.04453778 0.0019897283 0.0049984823
0.053948298 0.072103344 0.04922174 0.10444325 0.037143912 0.10931837 0.073280476 0.06180774
0.030063638 0.06725969 0.0677373 0.016605012 0.026316252 0.090152346 0.05544398 0.09703724
0.020769592 0.009697617 0.0663357 -0.015816422 -0.15322904 0.10406084 0.031437036 0.047687713
0.07405948 -0.026268285 0.06077976 0.1302133 0.0615085 0.0628256 0.09350405 0.12296825
0.03550694 0.09095074 0.07275676 0.050126348 0.012902124 0.04890887 0.017009957 0.09682828
0.09265851 0.12963018 0.043200776 -0.0035347007 0.035896122 0.032951903 0.015604647 -0.050229635
0.098882236 0.072770126 0.090831205 0.0904024 0.159454 0.053610813 0.06292314 0.124960676

model_6/dense_25/BiasAdd/ReadVariableOp f4 [512]
00000000: f944 3d3c 6cc0 86bc 624e e3bc c035 6a3d
00000010: ccc2 27bc af29 373c cda4 353c ca3c 553c
00000020: cad5 913b 49a2 f93c ad87 75b9 33d7 913c
00000030: 7e91 4d3c 85e5 a23b 72c9 72bc cacf 6e3c
00000040: bc97 c13c a9ad 95bc c1d8 4abb 315d 00be
00000050: 92f1 a53b 39e4 17bd dc70 223d 2082 053d
00000060: 47fc 3a3d e524 283c f86b e93b 7489 40ba
00000070: fc8f 26bc 5d1d 3b3c cec6 313c add0 2d3c
00000080: 32fa 3ebd d28c d9bb 3fb4 7cbc 5ed1 e8bd
00000090: e03d 8c3c ae9c 9cbd 6c2f c1bb b4dd 1c3c
000000a0: 6f0a 763b 83ff 473c 4de3 053d f752 e93b
000000b0: abff 5b3d 4699 d93c fdf8 85bc a173 213d
000000c0: b71c a13c 4b26 4abc a90b 17bd 5b34 163c
000000d0: efa5 023d c6fd 0a3d 2e43 7dbd 779c 233b
000000e0: 487c f93c b646 a2bc 2a87 253d c5f8 d6bc
000000f0: 1343 79bc e0a5 303d 913b 07bd b683 07bd
00000100: ea1e 8abc ff71 783b 299b 20bc 061e c5bd
00000110: ac37 88bb 34db 4fbd 5c31 74bd a402 c3bc
00000120: 96ae c3bd be05 1fbc da20 c03c 32dd 09bd
00000130: 603a fc3a 5cba d03c 883f 1c3d ba3d cabc
00000140: 81f4 db3b b355 fabc 8a14 2c3d 7005 c03c
00000150: ba26 e6bc a18b 82bb d362 9f3c de14 cebc
00000160: 9dc5 c73b 41eb 043d 70d8 403c 93e3 d03c
00000170: 5fff 15bd f061 0abd 2e1f b13c 3594 babd
00000180: edb5 ebbc b0bd aabd 8c14 edbc 9154 da3c
00000190: 3a73 9d3b a35e 053d 1a76 ed3c 7376 33bd
000001a0: 2cb6 5b3b fbbc 133d 2c53 123d d7d1 c8bb
000001b0: 18fa 23bb 1044 bf3b 3e0f ee3c 94ad b1ba
000001c0: 0781 0abc bc6d 62bd e745 c13c 4573 913c
000001d0: 4cea f6bc 3c5e 36bd 4e9a 2c3d 1336 25bd
000001e0: 07a9 d73c a7e0 24bd ebf1 85bd b3c9 a43c
000001f0: cf96 8ebd b0b5 173d 831c 16bc a333 963c
00000200: 3117 c1bc 6953 d23b 1f7a a2bb db4a 8d3c
00000210: fd7a 9abc 349e a3bb 974d 91bb cf3d 7fbc
00000220: 44b6 48bc d84d 8abb be54 cbbc 7aa7 2abb
00000230: 3434 cbbc a917 9d3c 2c02 e73b 2c50 9dbc
00000240: 2e94 78bb 6070 223d aa3d 9b3c e9db 83bd
00000250: edd3 39bd 2d33 f6bb 6ac7 58bb 5c5c 093c
00000260: 4055 b33c d8ae f03c 8068 47bd 4be2 1dbd
00000270: 1e92 123c 40ca 073d 85fb 1b3b f9e9 553d
00000280: 6b89 163d 3fcc eb3c 8c58 353d 3401 a43c
00000290: 9528 1cbc 1fa5 933c 2be2 65bc 8f39 5abc
000002a0: c5c2 723c 6bd7 c23c 0769 103d fa97 e9bc
000002b0: b3a1 5e3c 06b4 f0bc e4bd e5bc b80b 663c
000002c0: 11dd 47bc 8cc7 aaba 74d3 efbb e07c 153c
000002d0: 63d5 a83c b05b 253c fe01 cb3c 1f90 15bd
000002e0: b0a8 61bd 3a4c a6ba 4c7e 86bc 79f2 fbbb
000002f0: 5bc7 aa3c 36f8 1e3d 5f97 4cbd b062 b03c
00000300: b336 26bd 98fd 2c3c f7d5 d43c f830 4dbd
00000310: ac76 0e3d f775 9c3c 1601 5abd 0b7f 013d
00000320: f2ca 28bc 9826 1e3d 072e c13c 7c0a 833c
00000330: 3d50 79bc 5782 0ebd 5e7c d13a 1bd4 c9bb
00000340: 4e30 553d 00ee b23b 0a5d c93b dbf1 9dbd
00000350: 496e bc3c 3492 863b b9a0 08bd 10a9 62bc
00000360: e18a 503d 04d2 74bc 49c8 67bc 1695 cc3c
00000370: 4a12 a63c 6098 98bc 4060 f2ba 109e c3bc
00000380: 3d52 5cbc 4f9c b0bc b047 d0b9 d0ee b0bb
00000390: a3b3 563c aac0 5aba 9a64 1ebb 0bb7 ea3c
000003a0: bc75 34bb e736 e9bc 0f2f 013c 9377 aebb
000003b0: b1fa d43c c65d 30bd efdb 213d 3558 0f3d
000003c0: f6e6 b6bc c3e7 edbb 3ac3 15bd b475 05bd
000003d0: 9133 15bc 8653 debc f923 43bb 5215 91bd
000003e0: 4d6c aabd 66c5 fe3c 2536 433c 8436 183c
000003f0: 9c89 433d be2a 583d ed24 cebc d11f 123d
0.011552089 -0.016449176 -0.027747337 0.057180166 -0.010239314 0.011179372 0.011086655 0.0130149815
0.0044505345 0.030472891 -0.00023415564 0.01780281 0.012546895 0.0049712085 -0.014818536 0.014575908
0.023631923 -0.018271284 -0.003095195 -0.1253555 0.005064198 -0.037082884 0.039658412 0.0325948
0.045650747 0.010262703 0.0071234666 -0.0007344701 -0.0101661645 0.011420575 0.010850621 0.010608834
-0.046625324 -0.0066391015 -0.015423833 -0.113680586 0.017119348 -0.07647072 -0.0058955457 0.0095743425
0.003754284 0.012206915 0.032687474 0.007120486 0.05371062 0.026562344 -0.016354078 0.039416913
0.019667013 -0.012338231 -0.036876354 0.009167756 0.031896528 0.033933423 -0.061831646 0.0024965086
0.03045477 -0.019809108 0.040412106 -0.02624167 -0.015213746 0.04312694 -0.03301579 -0.033084594
-0.016860444 0.0037909744 -0.009802618 -0.09624867 -0.004157027 -0.050746158 -0.059617385 -0.02380497
-0.09554784 -0.009705959 0.023453165 -0.033658214 0.0019243471 0.025479488 0.038146526 -0.024687637
0.0067124967 -0.030558443 0.042011775 0.023440093 -0.028094638 -0.00398393 0.019456303 -0.025156435
0.0060965554 0.032450918 0.011770353 0.02549914 -0.036620494 -0.033784807 0.021621313 -0.091102995
-0.028773272 -0.08336961 -0.028940462 0.026651653 0.004804996 0.032560956 0.02898698 -0.043814134
0.003352533 0.036068898 0.03572385 -0.0061285305 -0.0025020894 0.005836971 0.029060002 -0.0013555759
-0.008453614 -0.055280432 0.023592902 0.01775516 -0.030141018 -0.044523463 0.042139344 -0.040334772
0.026325716 -0.040253308 -0.06540283 0.020115709 -0.06962358 0.037038505 -0.009162071 0.01833517
-0.023570629 0.0064186347 -0.0049584056 0.017247608 -0.018857474 -0.0049932245 -0.0044342983 -0.015578701
-0.012250487 -0.0042207055 -0.024820682 -0.0026039765 -0.024805166 0.019176321 0.0070498195 -0.019203268
-0.003793012 0.03965795 0.018950302 -0.06438429 -0.045368124 -0.007513425 -0.0033077844 0.008383837
0.021891236 0.029380247 -0.048683643 -0.038545888 0.00894597 0.033151865 0.002380104 0.052225087
0.036752146 0.028783916 0.044273898 0.020020105 -0.00953116 0.018023072 -0.014030973 -0.013319387
0.0148169445 0.02378436 0.035256412 -0.02851485 0.013588357 -0.029382717 -0.028044648 0.01404088
-0.012198702 -0.001302944 -0.0073189083 0.009124011 0.020609563 0.010092661 0.024781223 -0.036514398
-0.055092514 -0.0012687512 -0.016417645 -0.007688817 0.020847013 0.03881093 -0.049949046 0.021531433
-0.04057951 0.010558508 0.025980933 -0.05009553 0.034781143 0.019099219 -0.053223692 0.0316153
-0.010302292 0.038611025 0.023581518 0.01599621 -0.015216884 -0.03479227 0.0015982499 -0.006159318
0.05204802 0.0054605007 0.0061451243 -0.07712146 0.023001807 0.0041067842 -0.033356402 -0.013834253
0.050913695 -0.01494265 -0.014146873 0.024973433 0.020272393 -0.018627346 -0.001849182 -0.023879081
-0.0134473415 -0.021558909 -0.00039726263 -0.0053995624 0.013104352 -0.0008344749 -0.002416885 0.028651735
-0.0027535995 -0.028468562 0.007884755 -0.005324313 0.025998445 -0.04305818 0.039516386 0.03499623
-0.022326928 -0.007260294 -0.036563136 -0.032582954 -0.009106533 -0.027139436 -0.002977608 -0.07084145
-0.08321438 0.031099986 0.0119147645 0.009290341 0.047738656 0.052775137 -0.025164092 0.035674874

model_6/dense_24/BiasAdd/ReadVariableOp f4 [256]
00000000: 71f9 e9bb c58d 9a3d de98 18bd ef30 09bd
00000010: 32dd 3bbe b5f1 77bd b7af 4a3b dae7 83bd
00000020: 4ab2 b0bd 06fe 81bb 31f6 acbb f5b9 2bbd
00000030: 167c 933d ae89 0e3e 0000 0000 ac6e 99bb
00000040: 766b 503d 6438 85bd 4021 7bbd ab57 953d
00000050: 5104 bbbd 6399 87bd 1ed8 4abd 5a07 3cbd
00000060: 10ac e8bc 0992 163d 77d1 0b3e 8a69 8ebd
00000070: d56b 5abc 4ae0 c3bd f2ad b2bd db06 93bb
00000080: 3596 953d 0cb9 92bb 0000 0000 5471 fdbb
00000090: b3cd e0bd ed27 183d eb93 c1ba a56e 0cbe
000000a0: d5a1 f6bd 0000 0000 0000 0000 fedf 8cbd
000000b0: ee51 823d ed8b df3c 5844 31bd 537c 0cbd
000000c0: 9894 74bd ed83 a9bd 0000 0000 0bfa 45bd
000000d0: ac5c fa3c 75d2 cb3c b3f1 f6ba 0000 0000
000000e0: 0000 0000 d183 693d b55b 8b3b 3a25 023e
000000f0: 01a5 063c e918 e5bd 15c9 8c3d 06dd 9d3d
00000100: 3356 1fbd 041f e9b9 aa00 83bd 4949 e1bc
00000110: 3751 d03b d75b bf3c d0de 27bd 013b f2ba
00000120: 0000 0000 5d45 0f3d 0000 0000 f1e4 46bd
00000130: 9c1b 5cbc cbc1 c53d a7f5 bdbc 4151 41bc
00000140: 9a19 62bc 6b62 05bb a3fb 06bd 56cc e33d
00000150: f7ec 3b3b 317a 093c f4f0 f73c d805 e3bc
00000160: d4c7 d8bc 9e86 37bc 0000 0000 59ad ddbc
00000170: 0a87 a03d 64da 9abc 6509 ae3c 0000 0000
00000180: f90a af3c 1695 183e 45e3 a9bb 207f ca3c
00000190: 3656 49bd 899b 99bb 0f29 d63d 06ee 523d
000001a0: 0000 0000 ef31 073d 48c1 a7bb b5b1 253c
000001b0: 5871 143d 3ebc 2abc 4378 953c bd91 6b3b
000001c0: 4812 0cbe 7dd8 01bd cb33 bebb e65b 59bc
000001d0: 7083 38bc 57e9 053d 702b f33b 4d79 fe3d
000001e0: cee6 c4ba 3b77 053d 8069 ce3c 0000 0000
000001f0: bc7d 94bd 28b2 b2bc a64b 35bd 0000 0000
00000200: 9cc6 f3bd 64ea 88bd cc8a 62bd 509b 2f3b
00000210: 4478 d3bd 4c22 41bd 6295 0bbe 2e07 70bd
00000220: 5773 cdbd 44db 97bd 20ce 8abd 5811 a63c
00000230: de6e 15bc 0000 0000 a83e 47bd 2413 81bb
00000240: 0000 0000 c69b 4fbb 8b9b 9dbd f029 49bd
00000250: 0b7a 8a3c 3226 87bc b49b 143e 479a b0bd
00000260: 6463 793d 63b3 db3d 94af 8f3d 44d3 febc
00000270: 949d 7bbd a63b a9bc 8b7c 8b3a c89b 37bd
00000280: 8731 b53d af7d cfbd 1488 953d e82d 853c
00000290: 9ab4 1b3d aa72 293e 33d0 42bd a844 863c
000002a0: e810 6cbd 198c b83d b5e8 413d 0000 0000
000002b0: 256b 48bd 8d93 49bd ee59 cabc 6f4f 8eba
000002c0: 11ea 83bd 7cea 65bd e837 96bd c1ef 77bd
000002d0: cd46 613d c4c2 43bd 0f50 6bbd b0b2 8bbd
000002e0: 4f39 6e3d 377e 57bd 0620 3abd b53e b23d
000002f0: 5f11 38bd 1780 e33c a89e b8bd b998 763d
00000300: 0000 0000 a74e 373d 270a 2abd 699e 0cbe
00000310: 32c5 b1bd f3b3 e73c f270 b1bc 6ad8 9b3d
00000320: 8645 713d f716 8dbd 0000 0000 d987 50bb
00000330: a104 b73a 2f8f 18bd 0000 0000 8f6a c7bc
00000340: 4e95 edbc e8e6 c8bc ba33 983c 5633 75bd
00000350: e3e2 853d aaa1 0cbe 2939 fdbd 7988 0ebb
00000360: c677 31be 7629 4fbb a301 e2bb 09b8 91ba
00000370: bf27 d4bd 0492 6dbd 135c 06bb e7de 01bd
00000380: 78fe 72bd 6754 83bb bc23 9d3d a6b7 01bd
00000390: 5ae8 103d 3554 d9bc 2b54 dc3d 0000 0000
000003a0: deff bdbd 20b4 42bd 0573 7fbd 8328 03bd
000003b0: b0e5 2abd cd04 83bd 767a 02bd e74d 83bd
000003c0: 817f a9bc 05be 97bd 8501 20bd 0000 0000
000003d0: b6d1 6cbd 2d33 8bbd 6152 c23d 25c4 653c
000003e0: 0000 0000 6b8f b4bd 5598 0dbe 37f8 d33c
000003f0: 0000 0000 e6b0 a5bd 8290 273c a7f1 b1bd
-0.0071403314 0.07546572 -0.03725516 -0.033493932 -0.18346098 -0.060533244 0.0030927488 -0.064407066
-0.08627756 -0.0039670495 -0.0052783717 -0.04192539 0.07201402 0.13919708 0.0 -0.0046823826
0.050883733 -0.06504896 -0.061311007 0.07292112 -0.09131683 -0.06621053 -0.04952251 -0.04590545
-0.028402358 0.036760364 0.13654123 -0.06953724 -0.013331373 -0.09564264 -0.08724584 -0.004486901
0.0730404 -0.0044776257 0.0 -0.007734457 -0.10976734 0.03714745 -0.0014768814 -0.13714083
-0.12042586 0.0 0.0 -0.068786606 0.06363283 0.027288401 -0.04327807 -0.034298252
-0.059712023 -0.08277116 0.0 -0.048334163 0.030561768 0.024880627 -0.0018840343 0.0
0.0 0.057010476 0.0042528757 0.12709513 0.008218051 -0.11186392 0.06874291 0.077081725
-0.038900565 -0.00044464332 -0.06396611 -0.027500765 0.006357338 0.023359222 -0.040983975 -0.0018480719
0.0 0.03497826 0.0 -0.04855818 -0.013434317 0.09656104 -0.023188425 -0.011799158
-0.013800049 -0.002035285 -0.032954823 0.11122958 0.0028675178 0.008390949 0.030266263 -0.027712747
-0.026462473 -0.011201529 0.0 -0.027060198 0.07838257 -0.018902965 0.021244714 0.0
0.021367537 0.14900622 -0.0051845633 0.024718821 -0.049154483 -0.0046877307 0.1045705 0.051496528
0.0 0.033006605 -0.0051194765 0.010113169 0.036240906 -0.010420857 0.018245822 0.003594502
-0.13678849 -0.0317006 -0.005804514 -0.013266539 -0.011261806 0.032693233 0.0074209496 0.1242548
-0.0015022398 0.03258441 0.02519679 0.0 -0.072505444 -0.021813467 -0.044261597 0.0
-0.11903116 -0.066853315 -0.05530815 0.0026795454 -0.10325673 -0.04715185 -0.13631204 -0.058600597
-0.10031765 -0.074148685 -0.067775965 0.020271942 -0.009120671 0.0 -0.048643738 -0.0039390493
0.0 -0.0031678542 -0.07695683 -0.04911226 0.016903898 -0.016497705 0.14512521 -0.08623176
0.060885802 0.10727575 0.07015911 -0.031106599 -0.061429575 -0.020658325 0.0010641975 -0.0448263
0.08847337 -0.10131394 0.073013455 0.016257241 0.038014032 0.16547647 -0.047561835 0.01639016
-0.05763331 0.090110965 0.047341067 0.0 -0.048930306 -0.04921298 -0.024701085 -0.0010857413
-0.06441129 -0.056131825 -0.07334882 -0.06053138 0.05499916 -0.047793165 -0.057449397 -0.06821191
0.058160122 -0.052610602 -0.045440696 0.08703367 -0.04493844 0.027771039 -0.09014636 0.06020424
0.0 0.044752743 -0.04151359 -0.13732304 -0.0868019 0.028284049 -0.021660302 0.07609637
0.058904193 -0.06889146 0.0 -0.0031819253 0.0013963172 -0.037245926 0.0 -0.024342803
-0.029001858 -0.024524167 0.018579353 -0.05986341 0.06537416 -0.13733545 -0.12364418 -0.0021748825
-0.17330846 -0.0031610406 -0.006897168 -0.0011117469 -0.103591435 -0.05800058 -0.0020501658 -0.031706717
-0.05932471 -0.0040078643 0.076728314 -0.03166928 0.035377838 -0.02652941 0.10758241 0.0
-0.092773184 -0.04753506 -0.06236555 -0.032021057 -0.041722953 -0.063974 -0.03185507 -0.06411343
-0.020690681 -0.0740929 -0.03906395 0.0 -0.057817183 -0.067968704 0.09488369 0.014023815
0.0 -0.08816417 -0.13827641 0.025875194 0.0 -0.08090381 0.010227324 -0.0868867

model_6/dense_24/MatMul i1 [256, 51] scale=0.0040980573 zero_point=0
00000000: 011e 0308 05de 1ef2 f111 eae7 dee7 eefa
00000010: e611 fcf9 dde3 19f1 f511 1cff e807 161f
00000020: 0013 0bf7 0cfd 0113 f10c e3e1 ef02 f202
00000030: f6e6 e9f9 d8e3 07f6 f119 f20a 0d13 ff11
00000040: f3f5 0523 24fc 03fe 0208 e20d 1cf1 c0f5
00000050: 12d0 0b04 32fb f602 270d dae7 e5e7 1a04
00000060: 21e2 0513 dd02 d71a e9e1 1efd ee09 0dfd
00000070: faf1 05f8 ff10 1bf6 1dda 0641 f8e3 1ff7
00000080: e6ec f200 fcf9 f0f4 1627 16f8 12fd ffff
00000090: 0004 09ee ecef 0a16 e316 d114 fb00 f4ee
000000a0: ea14 e200 28fe f405 feda 00ed 1411 f3e1
000000b0: efe2 f1e7 1715 e9ff fb03 1e04 dd1a f6e6
000000c0: 2e1d e904 e4dc 2411 f124 f525 edeb efec
000000d0: 1cf3 06e7 faea 0eef eb19 1834 03f4 fb0b
000000e0: 0b24 1307 3ced 0feb e5f0 0aed f711 28f1
000000f0: ee04 ec1d 1e17 fed3 0c16 0b18 daff f707
0.0040980573 0.12294172 0.012294171 0.03278446 0.020490287 -0.13933395 0.12294172 -0.0573728
-0.06147086 0.069666974 -0.09015726 -0.10245143 -0.13933395 -0.10245143 -0.07376503 -0.024588343
-0.10654949 0.069666974 -0.01639223 -0.0286864 -0.143432 -0.11884366 0.10245143 -0.06147086
-0.04507863 0.069666974 0.1147456 -0.0040980573 -0.09835337 0.0286864 0.09015726 0.12703978
0.0 0.07786309 0.04507863 -0.036882516 0.049176686 -0.012294171 0.0040980573 0.07786309
-0.06147086 0.049176686 -0.11884366 -0.12703978 -0.069666974 0.008196115 -0.0573728 0.008196115
-0.040980574 -0.10654949 -0.09425532 -0.0286864 -0.1639223 -0.11884366 0.0286864 -0.040980574
-0.06147086 0.10245143 -0.0573728 0.040980574 0.053274743 0.07786309 -0.0040980573 0.069666974
-0.053274743 -0.04507863 0.020490287 0.143432 0.14753006 -0.01639223 0.012294171 -0.008196115
0.008196115 0.03278446 -0.12294172 0.053274743 0.1147456 -0.06147086 -0.26227567 -0.04507863
0.07376503 -0.19670674 0.04507863 0.01639223 0.20490286 -0.020490287 -0.040980574 0.008196115
0.15982424 0.053274743 -0.15572618 -0.10245143 -0.110647544 -0.10245143 0.10654949 0.01639223
0.13523589 -0.12294172 0.020490287 0.07786309 -0.143432 0.008196115 -0.16802035 0.10654949
-0.09425532 -0.12703978 0.12294172 -0.012294171 -0.07376503 0.036882516 0.053274743 -0.012294171
-0.024588343 -0.06147086 0.020490287 -0.03278446 -0.0040980573 0.06556892 0.110647544 -0.040980574
0.11884366 -0.15572618 0.024588343 0.26637372 -0.03278446 -0.11884366 0.12703978 -0.036882516
-0.10654949 -0.08196115 -0.0573728 0.0 -0.01639223 -0.0286864 -0.06556892 -0.049176686
0.09015726 0.15982424 0.09015726 -0.03278446 0.07376503 -0.012294171 -0.0040980573 -0.0040980573
0.0 0.01639223 0.036882516 -0.07376503 -0.08196115 -0.069666974 0.040980574 0.09015726
-0.11884366 0.09015726 -0.1926087 0.08196115 -0.020490287 0.0 -0.049176686 -0.07376503
-0.09015726 0.08196115 -0.12294172 0.0 0.1639223 -0.008196115 -0.049176686 0.020490287
-0.008196115 -0.15572618 0.0 -0.07786309 0.08196115 0.069666974 -0.053274743 -0.12703978
-0.069666974 -0.12294172 -0.06147086 -0.10245143 0.09425532 0.086059205 -0.09425532 -0.0040980573
-0.020490287 0.012294171 0.12294172 0.01639223 -0.143432 0.10654949 -0.040980574 -0.10654949
0.18851064 0.11884366 -0.09425532 0.01639223 -0.1147456 -0.14753006 0.14753006 0.069666974
-0.06147086 0.14753006 -0.04507863 0.15162812 -0.07786309 -0.086059205 -0.069666974 -0.08196115
0.1147456 -0.053274743 0.024588343 -0.10245143 -0.024588343 -0.09015726 0.0573728 -0.069666974
-0.086059205 0.10245143 0.09835337 0.21309897 0.012294171 -0.049176686 -0.020490287 0.04507863
0.04507863 0.14753006 0.07786309 0.0286864 0.24588344 -0.07786309 0.06147086 -0.086059205
-0.110647544 -0.06556892 0.040980574 -0.07786309 -0.036882516 0.069666974 0.1639223 -0.06147086
-0.07376503 0.01639223 -0.08196115 0.11884366 0.12294172 0.09425532 -0.008196115 -0.18441258
0.049176686 0.09015726 0.04507863 0.09835337 -0.15572618 -0.0040980573 -0.036882516 0.0286864

model_6/dense_25/MatMul i1 [512, 256] scale=0.0048356904 zero_point=0
00000000: f5e1 03f9 fcee fa03 0ac3 0b0f f80a 07e6
00000010: 03e2 0cd1 04fa 1d0b e9d6 15fd c7ff 040f
00000020: 0308 0c11 fe0f fbfa fc0b fcdd 020b ff06
00000030: d7cd ef03 e4e8 fcf0 09f0 0010 06f8 e8e1
00000040: 00ff f20a 10fc daf7 0a01 02fe 1ef4 e900
00000050: f0ff ce09 ffdb d603 0f25 fef6 fcf8 e9fa
00000060: 0809 dddc dbcd 00ea f110 e3fb 1d01 bb04
00000070: 0ae9 0f07 e200 fec7 07e2 fdfa f0f4 fdff
00000080: ff0f 01fb 0c0b 02db 0904 e10d fbfb 10f7
00000090: 0b01 bbda cefa f314 f60a ee0d ec15 06fb
000000a0: e00b 0f18 f8f4 0604 0009 fe08 f609 02f6
000000b0: fe02 bbff fc11 f906 f7e5 1406 00fb faf9
000000c0: 0300 f6fc 0809 b8fe b8f3 0ef1 f50e 00da
000000d0: 0ed6 f710 fa02 00fe 030a fd0c 060a 0e0a
000000e0: 0202 c7fe 00f7 0805 f810 0dee d90a 08f0
000000f0: f602 07ee fb06 cce2 00ce f60b 120d c80d
-0.053192593 -0.1499064 0.014507071 -0.03384983 -0.019342761 -0.08704243 -0.029014142 0.014507071
0.048356906 -0.2949771 0.053192593 0.07253536 -0.038685523 0.048356906 0.03384983 -0.12572795
0.014507071 -0.14507072 0.058028284 -0.22727744 0.019342761 -0.029014142 0.14023502 0.053192593
-0.11122088 -0.203099 0.1015495 -0.014507071 -0.27563435 -0.0048356904 0.019342761 0.07253536
0.014507071 0.038685523 0.058028284 0.08220673 -0.009671381 0.07253536 -0.024178453 -0.029014142
-0.019342761 0.053192593 -0.019342761 -0.16924916 0.009671381 0.053192593 -0.0048356904 0.029014142
-0.1982633 -0.24662021 -0.08220673 0.014507071 -0.13539933 -0.11605657 -0.019342761 -0.077371046
0.043521214 -0.077371046 0.0 0.077371046 0.029014142 -0.038685523 -0.11605657 -0.1499064
0.0 -0.0048356904 -0.06769966 0.048356906 0.077371046 -0.019342761 -0.18375623 -0.043521214
0.048356906 0.0048356904 0.009671381 -0.009671381 0.14507072 -0.058028284 -0.11122088 0.0
-0.077371046 -0.0048356904 -0.24178451 0.043521214 -0.0048356904 -0.17892054 -0.203099 0.014507071
0.07253536 0.17892054 -0.009671381 -0.048356906 -0.019342761 -0.038685523 -0.11122088 -0.029014142
0.038685523 0.043521214 -0.16924916 -0.17408486 -0.17892054 -0.24662021 0.0 -0.10638519
-0.07253536 0.077371046 -0.14023502 -0.024178453 0.14023502 0.0048356904 -0.33366263 0.019342761
0.048356906 -0.11122088 0.07253536 0.03384983 -0.14507072 0.0 -0.009671381 -0.27563435
0.03384983 -0.14507072 -0.014507071 -0.029014142 -0.077371046 -0.058028284 -0.014507071 -0.0048356904
-0.0048356904 0.07253536 0.0048356904 -0.024178453 0.058028284 0.053192593 0.009671381 -0.17892054
0.043521214 0.019342761 -0.1499064 0.062863976 -0.024178453 -0.024178453 0.077371046 -0.043521214
0.053192593 0.0048356904 -0.33366263 -0.18375623 -0.24178451 -0.029014142 -0.062863976 0.09671381
-0.048356906 0.048356906 -0.08704243 0.062863976 -0.09671381 0.1015495 0.029014142 -0.024178453
-0.15474209 0.053192593 0.07253536 0.11605657 -0.038685523 -0.058028284 0.029014142 0.019342761
0.0 0.043521214 -0.009671381 0.038685523 -0.048356906 0.043521214 0.009671381 -0.048356906
-0.009671381 0.009671381 -0.33366263 -0.0048356904 -0.019342761 0.08220673 -0.03384983 0.029014142
-0.043521214 -0.13056365 0.09671381 0.029014142 0.0 -0.024178453 -0.029014142 -0.03384983
0.014507071 0.0 -0.048356906 -0.019342761 0.038685523 0.043521214 -0.3481697 -0.009671381
-0.3481697 -0.062863976 0.06769966 -0.07253536 -0.053192593 0.06769966 0.0 -0.18375623
0.06769966 -0.203099 -0.043521214 0.077371046 -0.029014142 0.009671381 0.0 -0.009671381
0.014507071 0.048356906 -0.014507071 0.058028284 0.029014142 0.048356906 0.06769966 0.048356906
0.009671381 0.009671381 -0.27563435 -0.009671381 0.0 -0.043521214 0.038685523 0.024178453
-0.038685523 0.077371046 0.062863976 -0.08704243 -0.18859193 0.048356906 0.038685523 -0.077371046
-0.048356906 0.009671381 0.03384983 -0.08704243 -0.024178453 0.029014142 -0.2514559 -0.14507072
0.0 -0.24178451 -0.048356906 0.053192593 0.08704243 0.062863976 -0.27079865 0.062863976

model_6/dense_26/MatMul i1 [128, 512] scale=0.004177103 zero_point=0
00000000: 1ced e416 ef1d 1ff0 fb07 1a09 040a e504
00000010: 3314 09c8 2919 05fa 3be6 1117 f109 28de
00000020: e0ed 14c5 0cdf e6f1 03fb 2ced 1a14 f810
00000030: fede 1bf3 f0fb 19e7 0f02 2010 f2f6 f1fb
00000040: edfd 12e8 d7f6 f5ff e2ec 1bfc ede7 1e0c
00000050: 1bf0 d8f4 2004 0d0a edee 100d e3fa 09cb
00000060: e7f7 05ff edef fcea 0c11 ee0d fc06 2d1a
00000070: e0fc f312 d601 fac4 d2db d3f9 33fd 0fe9
00000080: 02e8 f532 eaec deee e2ee aee6 ee1e 1a27
00000090: ff1f 3d1d 0d10 241e 070b b2d6 fa08 1b06
000000a0: 1a00 000e 01eb 15f0 eb04 07c8 00d9 def2
000000b0: e7dc 0ef6 05f9 2301 090b f90f 0521 390d
000000c0: fbfa f7ee 1df3 e538 230a 07e4 c501 20fa
000000d0: 1bef cd07 3514 0609 0f0a 0321 2ff2 05fc
000000e0: dbee 1bd0 1aeb 02f2 f8e1 10c4 c9e3 f205
000000f0: 1712 f1e1 d1fe 03f7 cf23 0ff2 2e23 ff0a
0.11695888 -0.079364955 -0.11695888 0.091896266 -0.071010746 0.12113598 0.12949018 -0.066833645
-0.020885514 0.02923972 0.10860467 0.037593924 0.016708411 0.04177103 -0.11278178 0.016708411
0.21303225 0.08354206 0.037593924 -0.23391776 0.17126122 0.10442757 0.020885514 -0.025062617
0.24644907 -0.10860467 0.071010746 0.09607337 -0.062656544 0.037593924 0.16708411 -0.14202149
-0.13366729 -0.079364955 0.08354206 -0.24644907 0.050125234 -0.1378444 -0.10860467 -0.062656544
0.012531308 -0.020885514 0.18379253 -0.079364955 0.10860467 0.08354206 -0.033416823 0.066833645
-0.008354206 -0.14202149 0.11278178 -0.054302335 -0.066833645 -0.020885514 0.10442757 -0.10442757
0.062656544 0.008354206 0.13366729 0.066833645 -0.05847944 -0.04177103 -0.062656544 -0.020885514
-0.079364955 -0.012531308 0.07518785 -0.10025047 -0.17126122 -0.04177103 -0.045948133 -0.004177103
-0.12531309 -0.08354206 0.11278178 -0.016708411 -0.079364955 -0.10442757 0.12531309 0.050125234
0.11278178 -0.066833645 -0.16708411 -0.050125234 0.13366729 0.016708411 0.054302335 0.04177103
-0.079364955 -0.07518785 0.066833645 0.054302335 -0.12113598 -0.025062617 0.037593924 -0.22138645
-0.10442757 -0.037593924 0.020885514 -0.004177103 -0.079364955 -0.071010746 -0.016708411 -0.091896266
0.050125234 0.071010746 -0.07518785 0.054302335 -0.016708411 0.025062617 0.18796962 0.10860467
-0.13366729 -0.016708411 -0.054302335 0.07518785 -0.17543831 0.004177103 -0.025062617 -0.25062618
-0.19214673 -0.1545528 -0.18796962 -0.02923972 0.21303225 -0.012531308 0.062656544 -0.09607337
0.008354206 -0.10025047 -0.045948133 0.20885514 -0.091896266 -0.08354206 -0.14202149 -0.07518785
-0.12531309 -0.07518785 -0.34252244 -0.10860467 -0.07518785 0.12531309 0.10860467 0.162907
-0.004177103 0.12949018 0.25480327 0.12113598 0.054302335 0.066833645 0.1503757 0.12531309
0.02923972 0.045948133 -0.325814 -0.17543831 -0.025062617 0.033416823 0.11278178 0.025062617
0.10860467 0.0 0.0 0.05847944 0.004177103 -0.08771916 0.08771916 -0.066833645
-0.08771916 0.016708411 0.02923972 -0.23391776 0.0 -0.162907 -0.14202149 -0.05847944
-0.10442757 -0.1503757 0.05847944 -0.04177103 0.020885514 -0.02923972 0.1461986 0.004177103
0.037593924 0.045948133 -0.02923972 0.062656544 0.020885514 0.1378444 0.23809487 0.054302335
-0.020885514 -0.025062617 -0.037593924 -0.07518785 0.12113598 -0.054302335 -0.11278178 0.23391776
0.1461986 0.04177103 0.02923972 -0.11695888 -0.24644907 0.004177103 0.13366729 -0.025062617
0.11278178 -0.071010746 -0.21303225 0.02923972 0.22138645 0.08354206 0.025062617 0.037593924
0.062656544 0.04177103 0.012531308 0.1378444 0.19632383 -0.05847944 0.020885514 -0.016708411
-0.1545528 -0.07518785 0.11278178 -0.20050094 0.10860467 -0.08771916 0.008354206 -0.05847944
-0.033416823 -0.12949018 0.066833645 -0.25062618 -0.22974065 -0.12113598 -0.05847944 0.020885514
0.09607337 0.07518785 -0.062656544 -0.12949018 -0.19632383 -0.008354206 0.012531308 -0.037593924
-0.20467804 0.1461986 0.062656544 -0.05847944 0.19214673 0.1461986 -0.004177103 0.04177103

model_6/dense_27/MatMul i1 [256, 128] scale=0.005977773 zero_point=0
00000000: 0b00 0df6 10f1 0c00 02ba e615 cfe9 2101
00000010: f006 0b11 f015 eaea fb0a 1f0d 0d25 0541
00000020: f907 0308 1d0f 161c 0c12 010d fe01 17e8
00000030: 230e f613 021e 210e 0fe3 06ff effa 2611
00000040: f006 edfe 29c9 c600 0515 e815 f6f2 f406
00000050: e21d 170a e0eb f007 e8f4 0b07 e30d 0b0d
00000060: cd1b 0efe 1de0 05ef 06dd 0df0 0818 f209
00000070: 0f15 1b19 1716 d920 f21e f810 071b 00ef
00000080: 1719 0e04 0401 1a25 0c12 f30f 00f8 21f2
00000090: 2c10 e712 ed00 2f21 e9f3 f017 f416 f80d
000000a0: 0419 ed21 fde4 0307 1804 f524 1e10 fc1a
000000b0: 0c06 0620 06f6 2c04 163f da16 0217 eff2
000000c0: f907 0a11 0200 fa0b f4f1 fff5 10f4 faf9
000000d0: fc00 4213 1205 0306 2614 f904 dd05 1a13
000000e0: 0a15 fc12 0d12 fc09 03fa 17f8 0dff 0c0a
000000f0: 080d 0326 fafa 101e 2500 f302 0a0b 0514
0.0657555 0.0 0.07771105 -0.05977773 0.09564437 -0.0896666 0.07173328 0.0
0.011955546 -0.41844413 -0.1554221 0.12553324 -0.29291087 -0.13748878 0.19726652 0.005977773
-0.09564437 0.03586664 0.0657555 0.10162214 -0.09564437 0.12553324 -0.131511 -0.131511
-0.029888865 0.05977773 0.18531096 0.07771105 0.07771105 0.22117761 0.029888865 0.38855526
-0.041844413 0.041844413 0.01793332 0.047822185 0.17335542 0.0896666 0.131511 0.16737765
0.07173328 0.107599914 0.005977773 0.07771105 -0.011955546 0.005977773 0.13748878 -0.14346656
0.20922206 0.083688825 -0.05977773 0.113577686 0.011955546 0.1793332 0.19726652 0.083688825
0.0896666 -0.17335542 0.03586664 -0.005977773 -0.10162214 -0.03586664 0.22715537 0.10162214
-0.09564437 0.03586664 -0.113577686 -0.011955546 0.2450887 -0.32877752 -0.34671083 0.0
0.029888865 0.12553324 -0.14346656 0.12553324 -0.05977773 -0.083688825 -0.07173328 0.03586664
-0.1793332 0.17335542 0.13748878 0.05977773 -0.19128874 -0.12553324 -0.09564437 0.041844413
-0.14346656 -0.07173328 0.0657555 0.041844413 -0.17335542 0.07771105 0.0657555 0.07771105
-0.30486643 0.16139987 0.083688825 -0.011955546 0.17335542 -0.19128874 0.029888865 -0.10162214
0.03586664 -0.20922206 0.07771105 -0.09564437 0.047822185 0.14346656 -0.083688825 0.053799957
0.0896666 0.12553324 0.16139987 0.14944433 0.13748878 0.131511 -0.23313315 0.19128874
-0.083688825 0.1793332 -0.047822185 0.09564437 0.041844413 0.16139987 0.0 -0.10162214
0.13748878 0.14944433 0.083688825 0.023911092 0.023911092 0.005977773 0.1554221 0.22117761
0.07173328 0.107599914 -0.07771105 0.0896666 0.0 -0.047822185 0.19726652 -0.083688825
0.263022 0.09564437 -0.14944433 0.107599914 -0.113577686 0.0 0.28095534 0.19726652
-0.13748878 -0.07771105 -0.09564437 0.13748878 -0.07173328 0.131511 -0.047822185 0.07771105
0.023911092 0.14944433 -0.113577686 0.19726652 -0.01793332 -0.16737765 0.01793332 0.041844413
0.14346656 0.023911092 -0.0657555 0.21519983 0.1793332 0.09564437 -0.023911092 0.1554221
0.07173328 0.03586664 0.03586664 0.19128874 0.03586664 -0.05977773 0.263022 0.023911092
0.131511 0.3765997 -0.22715537 0.131511 0.011955546 0.13748878 -0.10162214 -0.083688825
-0.041844413 0.041844413 0.05977773 0.10162214 0.011955546 0.0 -0.03586664 0.0657555
-0.07173328 -0.0896666 -0.005977773 -0.0657555 0.09564437 -0.07173328 -0.03586664 -0.041844413
-0.023911092 0.0 0.39453304 0.113577686 0.107599914 0.029888865 0.01793332 0.03586664
0.22715537 0.11955546 -0.041844413 0.023911092 -0.20922206 0.029888865 0.1554221 0.113577686
0.05977773 0.12553324 -0.023911092 0.107599914 0.07771105 0.107599914 -0.023911092 0.053799957
0.01793332 -0.03586664 0.13748878 -0.047822185 0.07771105 -0.005977773 0.07173328 0.05977773
0.047822185 0.07771105 0.01793332 0.22715537 -0.03586664 -0.03586664 0.09564437 0.1793332
0.22117761 0.0 -0.07771105 0.011955546 0.05977773 0.0657555 0.029888865 0.11955546

model_6/pose/MatMul i1 [14, 256] scale=0.011093785 zero_point=0
00000000: 04f6 0a07 fbeb eaf8 ebfb 1601 ef05 dfd7
00000010: 0add 0e09 e210 dc09 03e6 ef12 eedc f4fa
00000020: 08ef 0703 08f6 fcfb 03f4 f202 d80f 1310
00000030: f5f9 e210 cf07 05f2 fbdf 0102 080b 1408
00000040: f6fb 06e1 f1da 0bdc 08f8 f7f1 0a02 eae9
00000050: e80d 0ae8 fe05 0811 ee1c 0916 0209 f7dd
00000060: 0fea fbdf f0e7 f5df f3e1 0ad1 f1fa 15fb
00000070: 0c08 e5e7 fdfa eb16 e716 e1ee 05e9 fb11
00000080: f408 0f12 1410 0807 f0f3 f5e5 0be3 0807
00000090: 0cf5 11f5 e20f 08ed 01e1 0209 f5f2 f0ea
000000a0: edf1 1408 f3fb 0c15 e1e5 fedd faff d2f1
000000b0: 0501 03ed 0b0a 0015 e2ea 0af0 1207 fbe0
000000c0: 08df f8fc e804 f4e6 0f12 d809 0bfc e9ed
000000d0: f407 15f7 f30c 13fc f208 1702 0adb eaf3
000000e0: 0df0 0409 1314 e501 0f05 f8e6 f7f7 f918
000000f0: 0fdd 0dfe f4f2 ebf8 18fb 0d03 0900 0aeb
0.04437514 -0.11093785 0.11093785 0.07765649 -0.055468924 -0.2329695 -0.24406327 -0.08875028
-0.2329695 -0.055468924 0.24406327 0.011093785 -0.18859434 0.055468924 -0.36609492 -0.4548452
0.11093785 -0.38828248 0.15531299 0.09984407 -0.33281356 0.17750056 -0.39937627 0.09984407
0.033281356 -0.2884384 -0.18859434 0.19968814 -0.19968814 -0.39937627 -0.13312542 -0.06656271
0.08875028 -0.18859434 0.07765649 0.033281356 0.08875028 -0.11093785 -0.04437514 -0.055468924
0.033281356 -0.13312542 -0.15531299 0.02218757 -0.4437514 0.16640678 0.21078192 0.17750056
-0.12203164 -0.07765649 -0.33281356 0.17750056 -0.5435955 0.07765649 0.055468924 -0.15531299
-0.055468924 -0.36609492 0.011093785 0.02218757 0.08875028 0.12203164 0.2218757 0.08875028
-0.11093785 -0.055468924 0.06656271 -0.34390733 -0.16640678 -0.42156383 0.12203164 -0.39937627
0.08875028 -0.08875028 -0.09984407 -0.16640678 0.11093785 0.02218757 -0.24406327 -0.25515705
-0.26625085 0.1442192 0.11093785 -0.26625085 -0.02218757 0.055468924 0.08875028 0.18859434
-0.19968814 0.31062597 0.09984407 0.24406327 0.02218757 0.09984407 -0.09984407 -0.38828248
0.16640678 -0.24406327 -0.055468924 -0.36609492 -0.17750056 -0.2773446 -0.12203164 -0.36609492
-0.1442192 -0.34390733 0.11093785 -0.5214079 -0.16640678 -0.06656271 0.2329695 -0.055468924
0.13312542 0.08875028 -0.2995322 -0.2773446 -0.033281356 -0.06656271 -0.2329695 0.24406327
-0.2773446 0.24406327 -0.34390733 -0.19968814 0.055468924 -0.25515705 -0.055468924 0.18859434
-0.13312542 0.08875028 0.16640678 0.19968814 0.2218757 0.17750056 0.08875028 0.07765649
-0.17750056 -0.1442192 -0.12203164 -0.2995322 0.12203164 -0.32171977 0.08875028 0.07765649
0.13312542 -0.12203164 0.18859434 -0.12203164 -0.33281356 0.16640678 0.08875028 -0.21078192
0.011093785 -0.34390733 0.02218757 0.09984407 -0.12203164 -0.15531299 -0.17750056 -0.24406327
-0.21078192 -0.16640678 0.2218757 0.08875028 -0.1442192 -0.055468924 0.13312542 0.2329695
-0.34390733 -0.2995322 -0.02218757 -0.38828248 -0.06656271 -0.011093785 -0.5103141 -0.16640678
0.055468924 0.011093785 0.033281356 -0.21078192 0.12203164 0.11093785 0.0 0.2329695
-0.33281356 -0.24406327 0.11093785 -0.17750056 0.19968814 0.07765649 -0.055468924 -0.35500112
0.08875028 -0.36609492 -0.08875028 -0.04437514 -0.26625085 0.04437514 -0.13312542 -0.2884384
0.16640678 0.19968814 -0.4437514 0.09984407 0.12203164 -0.04437514 -0.25515705 -0.21078192
-0.13312542 0.07765649 0.2329695 -0.09984407 -0.1442192 0.13312542 0.21078192 -0.04437514
-0.15531299 0.08875028 0.25515705 0.02218757 0.11093785 -0.41047004 -0.24406327 -0.1442192
0.1442192 -0.17750056 0.04437514 0.09984407 0.21078192 0.2218757 -0.2995322 0.011093785
0.16640678 0.055468924 -0.08875028 -0.2884384 -0.09984407 -0.09984407 -0.07765649 0.26625085
0.16640678 -0.38828248 0.1442192 -0.02218757 -0.13312542 -0.15531299 -0.2329695 -0.08875028
0.26625085 -0.055468924 0.1442192 0.033281356 0.09984407 0.0 0.11093785 -0.2329695
