Model/Trainer/model/pose_classifier.tflite (tflite, 253752 bytes, 10 tensors)

model_2/pose/BiasAdd/ReadVariableOp f4 [14]
-0.42626858 -0.51229256 -0.11550396 -0.09864552 0.37873265 0.08994861 0.13825548 -0.46198693
0.22676343 0.014514147 0.42899364 0.062953666 0.03066624 -0.060989086
00000000: e03f dabe 9b25 03bf 578d ecbd aa06 cabd
00000010: 3fe9 c13e fa36 b83d d892 0d3e 8d89 ecbe
00000020: ac34 683e bfcc 6d3c 0ea5 db3e daed 803d
00000030: c437 fb3c b1cf 79bd

model_2/dense_9/BiasAdd/ReadVariableOp f4 [512]
0.038463466 -0.5081814 -0.61891073 0.03660988 0.17792794 -0.49088323 -1.3289117 -0.24084546
-0.03479052 -0.59854823 0.40879953 -0.2574866 0.46555334 0.2375932 -0.102556095 -0.11107678
-0.8705036 -0.30778956 -0.7900779 0.14807522 -0.2270527 -0.20278701 -0.96625453 -0.9178371
0.14963524 -1.3310857 -0.56259865 0.35852817 -0.0010339651 0.016838674 -0.11405143 -0.84080374
-0.06964879 -0.050134514 0.17761675 -0.16022739 0.19402896 0.018530173 -1.7201319 0.21132514
0.3694478 0.01772487 -0.271018 -0.1963433 0.34800547 -0.53877103 -1.2445166 0.0068707396
0.06255797 0.29574522 -0.62761694 -0.70161325 -0.23225375 0.019912496 -0.15813616 -0.21439496
-0.052667037 -1.3363476 -0.62520504 -0.45193282 -1.1418508 -0.44086137 -0.30700704 -0.45755365
-0.23070467 -0.18515433 -0.4048885 0.46960062 -0.12563723 0.5940399 -0.63262635 -0.55274737
-0.26397172 -0.23865184 -0.41103017 0.12294651 -0.7186162 -0.21470879 0.16906285 0.12591729
-0.050886735 0.01238078 -0.90283257 0.4066066 -0.11190587 -0.83719945 0.26313922 0.5386447
-1.084412 0.2583083 0.23827954 -1.889579 -0.39333016 -1.3153498 -0.30934015 -0.343688
0.08054968 -0.311504 -0.02638626 -0.8530591 0.04529945 -0.58427143 -0.6936885 0.032646775
0.12697236 -0.38996866 -0.19029295 -0.7079201 -0.15282682 0.45445308 0.028377164 0.07739075
0.32812196 -1.7044805 0.13275199 -0.013086374 -0.8641264 0.26273367 -0.39175966 -0.7095023
-0.40124068 -0.098177195 0.24784397 -0.072440796 -0.18973668 -0.2258044 -0.30391067 -0.3885871
-0.5231706 -0.48003387 -0.5006729 -0.2809874 -0.2338443 0.13888963 -1.0525079 0.274837
-0.01684607 0.032362252 0.14040871 -0.8377967 0.026832556 0.18933512 -1.2212929 -0.48951992
-1.2641629 -0.6296788 0.13569608 -0.60419524 -1.2077552 -0.13142526 0.19042177 0.2045848
-0.28242385 0.28920558 -0.31401873 -1.2730923 -0.98758924 -0.016703157 0.22816437 -0.38029346
0.40199208 -0.22098844 -0.049322136 -0.8926744 -0.56120664 -0.8540505 -1.1166971 0.10615104
0.16674332 -0.0513032 0.2381242 -0.50391304 -0.13844869 -0.18677181 0.1657629 -1.0827955
-0.71940047 0.03053939 0.3961883 -0.18895186 -0.09068299 -0.09400418 -1.3558422 -0.117434226
-0.16230753 0.12517251 0.24598484 -1.076427 -0.015310801 -0.11894591 0.1464398 -0.75201917
-0.010545083 -0.20880322 -0.93546575 -0.11025882 0.21896507 0.009815135 0.08544109 -0.13752602
0.22942422 -0.41816157 -0.6433203 -0.09585521 0.11279415 -0.83973 -0.4881544 -1.0312248
0.07501459 0.22190492 0.05965659 -0.20850974 -0.5531677 -0.5281882 0.2554732 -0.10703488
0.22701225 0.14627668 -0.27834964 0.36909145 -0.65658057 -0.31397086 -0.47516704 -0.11257262
0.07911102 -1.0723735 -0.9390911 0.01185119 0.29154876 -0.18780887 -0.6922047 -0.914101
0.17784621 0.17616405 -0.24709871 -1.0934814 0.15944062 -1.1939459 -0.2621523 0.13541925
-0.19626643 -0.67347604 -0.56278515 -0.454523 0.2487093 -1.0436685 0.0063257837 -0.98562306
-1.8145269 0.19973452 0.2862584 0.29355693 -1.0560601 -0.38831082 -0.5114341 0.1252884
00000000: de8b 1d3d 2d18 02bf ef70 1ebf 3ef4 153d
00000010: be32 363e 0c55 fbbe c719 aabf 31a0 76be
00000020: 8180 0ebd 753a 19bf 2c4e d13e 49d5 83be
00000030: 025d ee3e a24b 733e ee08 d2bd 397c e3bd
00000040: 53d9 5ebf 9896 9dbe 8c42 4abf 08a1 173e
00000050: 8180 68be 66a7 4fbe 755c 77bf 5ff7 6abf
00000060: fb39 193e 0461 aabf 7706 10bf 0191 b73e
00000070: 1d86 87ba 42f1 893c cc93 e9bd ea3e 57bf
00000080: 06a4 8ebd d959 4dbd 2ae1 353e a612 24be
00000090: 87af 463e 97cc 973c 482d dcbf 9e65 583e
000000a0: 4328 bd3e bf33 913c dfc2 8abe 380e 49be
000000b0: c62d b23e e6ec 09bf 524c 9fbf f123 e13b
000000c0: 651e 803d eb6b 973e 81ab 20bf ed9c 33bf
000000d0: edd3 6dbe 881f a33c 72ee 21be 5a8a 5bbe
000000e0: 64b9 57bd 700d abbf 700d 20bf bd63 e7be
000000f0: 2b28 92bf 95b8 e1be 0730 9dbe 7944 eabe
00000100: d83d 6cbe 1999 3dbe 8c4d cfbe 7e6f f03e
00000110: 0ca7 00be 0013 183f cdf3 21bf da80 0dbf
00000120: 4d27 87be 2661 74be 8c72 d2be 61cb fb3d
00000130: 3bf7 37bf 9fdc 5bbe d01e 2d3e 76f0 003e
00000140: 9c6e 50bd c1d8 4a3c 0920 67bf be2e d03e
00000150: e82e e5bd b452 56bf 2fba 863e 9ee4 093f
00000160: 03ce 8abf fc40 843e 8dff 733e badd f1bf
00000170: 9262 c9be 625d a8bf d561 9ebe e0f7 afbe
00000180: 3bf7 a43d 747d 9fbe ff27 d8bc 1562 5abf
00000190: eb8b 393d d092 15bf 9295 31bf a0b8 053d
000001a0: 0b05 023e f9a9 c7be 28dc 42be 403a 35bf
000001b0: a27e 1cbe 13ae e83e 3a77 e83c 0b7f 9e3d
000001c0: 9aff a73e 6b2c dabf 23f0 073e 3b68 56bc
000001d0: 6337 5dbf 0785 863e b994 c8be f1a1 35bf
000001e0: 6b6f cdbe 2011 c9bd cfca 7d3e d75b 94bd
000001f0: 554a 42be 4539 67be 2e9a 9bbe e3f4 c6be
00000200: 82ee 05bf 00c7 f5be 192c 00bf 95dd 8fbe
00000210: e174 6fbe 1539 0e3e 94b8 86bf 6fb7 8c3e
00000220: c500 8abc 488e 043d 4dc7 0f3e d879 56bf
00000230: f3cf db3c 11e1 413e 5353 9cbf 5ba2 fabe
00000240: 17d0 a1bf a132 21bf eaf3 0a3e 8aac 1abf
00000250: b997 9abf 5894 06be edfd 423e ae7e 513e
00000260: dc99 90be c112 943e 10c7 a0be b0f4 a2bf
00000270: a6d2 7cbf 0fd5 88bc eca3 693e d3b5 c2be
00000280: e8d1 cd3e cb4a 62be 0206 4abd 4f86 64bf
00000290: 3dab 0fbf 0ea3 5abf eeef 8ebf b765 d93d
000002a0: c3be 2a3e 4e23 52bd d5d6 733e 7200 01bf
000002b0: 7ec5 0dbe 1c41 3fbe c0bd 293e 0b99 8abf
000002c0: a12a 38bf be2d fa3c 31d9 ca3e 997c 41be
000002d0: 01b8 b9bd 4385 c0bd 3d8c adbf 5b81 f0bd
000002e0: f233 26be 392d 003e 73e3 7b3e 5cc8 89bf
000002f0: 27da 7abc ea99 f3bd 51f4 153e 5484 40bf
00000300: 49c5 2cbc 83d0 55be af7a 6fbf 60cf e1bd
00000310: 6138 603e a9cf 203c bdfb ae3d 9fd3 0cbe
00000320: 2fee 6a3e 4619 d6be a4b0 24bf bd4f c4bd
00000330: 9f00 e73d 8cf8 56bf 60ef f9be 2dff 83bf
00000340: 40a1 993d 0b3b 633e 785a 743d 9483 55be
00000350: 669c 0dbf 5837 07bf 62cd 823e 1a35 dbbd
00000360: e675 683e 8ec9 153e d883 8ebe 8ef9 bc3e
00000370: aa15 28bf cac0 a0be 1849 f3be 798c e6bd
00000380: f504 a23d 8943 89bf 4668 70bf 7e2b 423c
00000390: e145 953e f850 40be 5434 31bf 8602 6abf
000003a0: 511d 363e 5964 343e 7207 7dbe 33f7 8bbf
000003b0: 6744 233e 38d3 98bf d438 86be 58ab 0a3e
000003c0: 11fa 48be ed68 2cbf b012 10bf 3db7 e8be
000003d0: a7ad 7e3e ee96 85bf 8548 cf3b cb51 7cbf
000003e0: 6b42 e8bf 3587 4c3e 7690 923e 184d 963e
000003f0: fa2c 87bf add0 c6be 58ed 02bf 9a4b 003e

model_2/dense_10/BiasAdd/ReadVariableOp f4 [128]
0.3144891 -0.811801 0.64151394 -0.7840244 0.5581215 0.10817458 0.11265169 0.5130196
0.5944901 0.45579866 0.060765192 -1.2690189 -0.12336392 -0.14287424 -0.12814167 0.6471193
-0.36565018 0.61208445 0.36367214 -0.22510488 -0.96566415 0.17000444 0.43570974 0.4552946
0.726353 0.17766581 0.1355705 0.3109606 -0.4424555 0.72663265 0.010415034 -1.82911
0.7694948 0.17337988 0.624657 0.23966675 0.13167049 -0.019419856 0.3636165 -0.17779948
0.26347372 -1.2821661 0.032547884 0.18676242 0.6731033 -0.95506436 -0.31437942 -0.68234664
0.18119365 0.5686139 0.11771773 -0.55971926 0.19182463 0.16771708 0.016690753 -0.074853756
-0.70723987 0.22369573 -0.52745056 0.802388 -0.37136903 0.5515052 -0.95438313 -0.16810092
-0.3538878 0.5506979 0.13773061 0.83902085 0.45239896 -0.13283116 0.4387341 -0.77316976
0.4189862 0.43481198 -0.5194797 0.9570013 0.22277866 0.082235254 -0.24270612 0.6482863
0.79350346 0.15318303 -0.54506946 0.32845953 -1.0253774 0.43111792 0.86433226 -1.5670046
-0.9072716 0.10182513 0.35831788 -0.54258895 0.7226086 -1.2175962 -0.44910705 -0.44770986
0.09774859 -0.21175006 0.5489263 -0.020760152 0.35967356 -0.27955845 0.83153945 0.06825933
0.59177756 0.8786699 -1.5600346 -1.9006397 0.1542452 -0.08205398 0.05576138 -0.2964899
-0.5875275 -0.3748491 0.27545604 0.6675099 0.53114796 0.5532905 0.010742101 -0.22287206
-1.6249881 -0.6689685 0.55955094 0.6785287 0.6101211 0.36119708 0.49280518 -0.27362368
00000000: b704 a13e 31d2 4fbf 423a 243f d3b5 48bf
00000010: 0de1 0e3f a28a dd3d eeb5 e63d 4155 033f
00000020: 8130 183f 715e e93e ece4 783d 366f a2bf
00000030: 39a6 fcbd a04d 12be 9237 03be 9ca9 253f
00000040: 8036 bbbe 91b1 1c3f 3c33 ba3e e581 66be
00000050: c435 77bf a515 2e3e 5915 df3e 601c e93e
00000060: 45f2 393f 07ee 353e fed2 0a3e 3a36 9f3e
00000070: 8789 e2be 9904 3a3f d2a3 2a3c 4720 eabf
00000080: 9cfd 443f 7f8a 313e 85e9 1f3f 336b 753e
00000090: a1d4 063e 6416 9fbc f12b ba3e 1111 36be
000000a0: 07e6 863e 051e a4bf ee50 053d a63e 3f3e
000000b0: 7f50 2c3f 197f 74bf 57f6 a0be 45ae 2ebf
000000c0: d48a 393e ae90 113f fe15 f13d c349 0fbf
000000d0: ad6d 443e 07be 2b3e 0cbb 883c ed4c 99bd
000000e0: ac0d 35bf 7e10 653e 0007 07bf 4d69 4d3f
000000f0: 1524 bebe 722f 0d3f 7452 74bf a622 2cbe
00000100: c830 b5be 8afa 0c3f 4109 0d3e 12ca 563f
00000110: d6a0 e73e e404 08be c2a1 e03e 74ee 45bf
00000120: 5c85 d63e ad9f de3e 9ffc 04bf 0afe 743f
00000130: 1720 643e f56a a83d f487 78be 17f6 253f
00000140: 0b23 4b3f 03dc 1c3e ac89 0bbf d92b a83e
00000150: 913f 83bf 7dbb dc3e e144 5d3f 9b93 c8bf
00000160: f442 68bf b289 d03d 7175 b73e 1ce7 0abf
00000170: e1fc 383f 31da 9bbf 5cf1 e5be 3a3a e5be
00000180: 6a30 c83d 02d5 58be 6f86 0c3f 3211 aabc
00000190: 2227 b83e 4922 8fbe c5df 543f 8ccb 8b3d
000001a0: bc7e 173f 83f0 603f 37af c7bf 2948 f3bf
000001b0: 74f2 1d3e eb0b a8bd 0b66 643d 86cd 97be
000001c0: 3468 16bf 39ec bfbe 9308 8d3e eee1 2a3f
000001d0: 50f9 073f 72a4 0d3f a3ff 2f3c 9338 64be
000001e0: 9cff cfbf 8541 2bbf bb3e 0f3f 0fb4 2d3f
000001f0: e530 1c3f d3ee b83e f650 fc3e 6718 8cbe

model_2/dense_11/BiasAdd/ReadVariableOp f4 [256]
-0.14011241 -0.82669574 0.24019146 0.13217358 -0.097700424 0.0788612 -0.75063866 -0.09457084
-1.079691 -0.5222633 -0.19958459 -1.6131742 -1.2001442 -1.0991248 0.49879473 -0.24787189
-1.4370362 -1.6281168 1.1994047 -0.6176528 -1.9182657 -1.7241565 -1.5563272 0.20858301
-0.108483285 -1.3445896 -0.2679418 -1.1524802 0.4961647 -0.6455143 0.3586087 -0.26791036
0.89825076 -0.92032033 0.9934127 0.23718658 -0.012246339 -0.040965874 -1.6246892 0.53420573
0.75164205 -0.36407787 -1.0054355 -0.1111525 0.6363317 0.0035541244 -0.5163789 -0.81119627
-0.5450145 -0.64448535 0.32207626 -0.91441965 -0.7443343 -0.92696464 0.6351484 -0.15108676
0.62923276 0.5645744 1.0012124 -1.4675032 0.8065146 -0.37554833 0.2866507 0.37824467
-0.7960484 -0.44670975 -0.36432368 0.6987912 1.2372555 0.4197323 0.36087146 -2.0939038
-0.5268031 -0.9408144 -0.7485374 0.06985125 0.46036413 -0.55760384 -0.06545165 -0.9845781
-0.39517972 -0.44708428 0.39449438 0.10032389 -0.22479641 0.91480404 -0.17813621 -0.047145523
0.8805396 -0.89168763 0.64842457 0.23852909 0.7679452 0.18875244 -0.72152 -0.38140783
-0.3258222 0.59015065 -0.9029206 -1.3081934 -0.7079262 -0.05299207 0.45443684 0.45072505
0.27359366 -2.3400905 0.16777532 0.45010483 -0.5797174 0.7181077 0.8099279 -0.051884286
-1.051317 0.4811264 -1.0961664 0.61717397 0.36950904 0.32036978 0.72377485 0.4896592
0.19964753 0.5891747 -0.976709 -0.14077483 0.7663249 -1.1382681 0.5198265 -2.6649292
-0.10920853 -0.37279543 -0.97570443 -1.3504001 0.5274648 0.7368236 -1.6125966 -0.83057666
0.8853261 0.27802745 0.7615517 0.41759554 -1.2174661 0.72778827 -1.4887104 -0.63646144
-0.7866423 -0.6952043 -1.5724138 -0.037093364 1.0115509 -0.6103137 -0.15670098 0.6637474
0.18004307 -1.3264236 1.1072346 0.2658119 0.41859284 0.4146125 -0.39197814 -0.46127695
-0.81879246 -1.9991653 1.0263011 0.13994932 -0.51243424 -0.9256519 -0.68512195 0.89044046
-1.5705429 -1.5780036 -0.3837185 0.55658746 -0.25470203 0.110205665 0.26429266 0.99341774
0.663892 -2.070825 0.02241103 0.17839861 -1.5228685 -0.11602871 -0.18879402 0.6877214
-0.052053038 0.4751061 -1.679087 1.2370714 -0.2175716 0.5986333 -1.4272448 -1.1287763
0.6004366 -0.6777622 -0.31413627 -0.12476595 -0.6163915 -2.4284453 -0.35599038 -0.72420156
-0.54382265 -0.25619656 -0.9472124 -1.8209871 0.46344447 -1.4260129 0.42085582 -0.7693926
0.5887878 -0.120308205 -1.895677 -0.105480775 -1.7195944 -1.1127996 0.20297424 0.04809675
0.61129516 -1.1208168 0.15347797 -1.4526201 0.07794429 -0.43536568 -0.2708301 -0.8200703
-0.0007279512 -0.94542885 -0.94545174 -0.22404388 -0.9959869 0.13941458 0.5289123 -0.6371523
-0.5494744 -0.007467047 0.20675324 0.041977514 0.44741812 -0.16269732 -0.26743683 -0.9660659
0.39180726 -2.2172549 -1.188465 -0.21954407 1.4397686 0.11562416 0.2613482 -0.58992857
-0.5671853 -0.31254712 -1.1005969 -0.07599301 0.8046705 0.5059288 -0.5786332 -0.8960935
00000000: a179 0fbe 55a2 53bf c0f4 753e 8358 073e
00000010: 2917 c8bd fb81 a13d db29 40bf 5bae c1bd
00000020: 5133 8abf 0cb3 05bf e75f 4cbe 7e7c cebf
00000030: 539e 99bf 1fb0 8cbf 0662 ff3e 21d2 7dbe
00000040: cdf0 b7bf 2266 d0bf 1886 993f 7e1e 1ebf
00000050: bb89 f5bf 29b1 dcbf bb35 c7bf c996 553e
00000060: 7c2c debd 831b acbf ab2f 89be 7984 93bf
00000070: 4d09 fe3e 6d40 25bf 8f9b b73e 8c2b 89be
00000080: c3f3 653f 1d9a 6bbf 4b50 7e3f 0ae1 723e
00000090: dea4 48bc d5cb 27bd d1f5 cfbf b5c1 083f
000000a0: 9d6b 403f 6a68 babe 1cb2 80bf eca3 e3bd
000000b0: a2e6 223f 50ec 683b 6831 04bf 8faa 4fbf
000000c0: 1286 0bbf fefc 24bf 2ee7 a43e 6817 6abf
000000d0: b18c 3ebf 8e4d 6dbf 1699 223f 7db6 1abe
000000e0: 6615 213f f387 103f ba27 803f 25d7 bbbf
000000f0: be77 4e3f df47 c0be e1c3 923e 49a9 c13e
00000100: d4c9 4bbf 24b7 e4be a288 babe fbe3 323f
00000110: 635e 9e3f 27e7 d63e 25c4 b83e 8502 06c0
00000120: 91dc 06bf 36d9 70bf 26a0 3fbf 2c0e 8f3d
00000130: d9b4 eb3e 20bf 0ebf 840b 86bd 4f0d 7cbf
00000140: ff54 cabe 3be8 e4be 2bfb c93e 9d76 cd3d
00000150: 0831 66be 9930 6a3f 5769 36be aa1b 41bd
00000160: 0b6b 613f a445 64bf 27ff 253f f840 743e
00000170: 0e98 443f 5248 413e 89b5 38bf e347 c3be
00000180: 2bd2 a6be 1d14 173f ce25 67bf e272 a7bf
00000190: a73a 35bf 360e 59bd f2ab e83e 6fc5 e63e
000001a0: 7814 8c3e 0bc4 15c0 4bcd 2b3e 2474 e63e
000001b0: 5c68 14bf e8d5 373f 6f57 4f3f 9e84 54bd
000001c0: 8e91 86bf 3356 f63e 2e4f 8cbf 1dff 1d3f
000001d0: 4a30 bd3e 8207 a43e 4f49 393f 9cb4 fa3e
000001e0: 6770 4c3e 27d4 163f 9a09 7abf 4727 10be
000001f0: de2d 443f c5b2 91bf 5913 053f 338e 2ac0
00000200: b9a8 dfbd 0bdf bebe c4c7 79bf e9d9 acbf
00000210: ef07 073f 79a0 3c3f 9169 cebf aca0 54bf
00000220: bba4 623f 9d59 8e3e 0df5 423f 15cf d53e
00000230: eed5 9bbf 5550 3a3f 108e bebf 23ef 22bf
00000240: 6461 49bf e9f8 31bf db44 c9bf 36ef 17bd
00000250: 807a 813f 853d 1cbf 3976 20be 59eb 293f
00000260: 365d 383e 40c8 a9bf ddb9 8d3f 7f18 883e
00000270: cd51 d63e 1748 d43e 5cb1 c8be 7e2c ecbe
00000280: 629c 51bf a6e4 ffbf d65d 833f e04e 0f3e
00000290: e42e 03bf 86f7 6cbf 2764 2fbf e8f3 633f
000002a0: 8d07 c9bf 06fc c9bf c076 c4be 847c 0e3f
000002b0: 4e68 82be 82b3 e13d 5e51 873e a050 7e3f
000002c0: d3f4 293f 6688 04c0 5697 b73c 20ae 363e
000002d0: 5bed c2bf 76a0 edbd 3853 41be 820e 303f
000002e0: 9135 55bd 1b41 f33e 53ec d6bf 5b58 9e3f
000002f0: 17cb 5ebe 0840 193f f5af b6bf be7b 90bf
00000300: 37b6 193f d381 2dbf 78d6 a0be 4a85 ffbd
00000310: d5cb 1dbf a66b 1bc0 5f44 b6be 4665 39bf
00000320: f637 0bbf 322c 83be 837c 72bf 1b16 e9bf
00000330: 9848 ed3e 9787 b6bf 6a7a d73e eaf6 44bf
00000340: ccba 163f 2664 f6bd 8ba5 f2bf 4e06 d8bd
00000350: ab1b dcbf 3870 8ebf 7bd8 4f3e 1901 453d
00000360: d77d 1c3f ed76 8fbf 5429 1d3e 75ef b9bf
00000370: 42a1 9f3d 40e8 debe 3eaa 8abe 21f0 51bf
00000380: fad3 3eba a007 72bf 2009 72bf c26b 65be
00000390: fff8 7ebf b2c2 0e3e cc66 073f 6a1c 23bf
000003a0: 5baa 0cbf 21ae f4bb 1fb7 533e 9df0 2b3d
000003b0: fd13 e53e 209a 26be 7bed 88be 1850 77bf
000003c0: f69a c83e 81e7 0dc0 9f1f 98bf 29d0 60be
000003d0: 564a b83f 5ccc ec3d 6ecf 853e 8f05 17bf
000003e0: 0e33 11bf 2d06 a0be 5ce0 8cbf 39a2 9bbd
000003f0: e3fe 4d3f 8d84 013f 4e21 14bf 6266 65bf

model_2/dense_8/BiasAdd/ReadVariableOp f4 [256]
-0.028822519 -0.537458 -0.7440489 -0.31003842 -0.11250626 -0.26194465 0.0057699857 -0.010306287
0.078940794 -0.5288992 -0.97665805 -0.00805838 0.39240137 0.6469899 0.37113184 -0.47922748
-0.44767848 0.14378317 -0.8413415 0.06022658 -0.07293973 0.59207195 0.19409423 -0.020369062
-0.10439191 -0.3495298 -0.18506823 1.0323943 0.0 -0.097793564 0.0033253965 -0.123316586
-0.07502165 -0.8480269 -0.10704155 -0.035407163 -0.036135316 -0.025776396 0.00990183 0.51838446
-0.09016199 -0.51627076 -0.3109204 -0.5776344 0.0 0.0 0.0 -0.4426846
-0.78125083 -0.9161901 -0.2449404 -0.3333312 0.14842153 -0.15928693 0.14438602 0.9018018
0.114569515 -0.009497857 -0.28156492 0.0003772965 0.37413406 -0.09363442 -0.39129773 -0.0123496475
-0.08266823 0.5402392 0.39954218 -0.004525797 -0.002596098 -0.03574366 0.41340655 -0.012003449
0.37046728 0.0 -0.037621483 -0.7032555 0.05099006 -0.021067942 -0.0050559854 0.0
0.066161126 -0.015452191 -0.009453219 0.33529902 0.08090822 0.51234686 -0.44162437 0.099621125
-0.89980686 -0.3588176 -0.002579171 -0.026989091 0.0 0.0 0.27001944 -0.0062416755
-0.08311278 0.5197427 -0.025531739 -0.005940286 -0.017002909 -0.010601405 -0.5187749 -0.39325723
0.42601702 -0.3694254 -0.30986723 -0.058682285 -0.6511102 -0.5011543 -0.3948507 -0.011343592
0.1562858 -0.005993321 0.39903992 -0.006229697 0.0 -0.63586795 -0.006438821 0.0
0.06248115 0.12203851 1.0179627 -0.24725267 -0.0068544415 0.9989955 0.0 0.8587471
0.66130567 -0.060237736 -0.08842564 -0.051433995 -0.01331252 0.18161443 0.0 -0.4128762
-0.06404839 0.62458944 -0.043751758 0.0 0.63164777 -0.34271142 -0.0284796 -0.04787002
-0.0059930757 0.0 -0.16499254 -0.4869668 0.15543294 -0.24529302 -0.21799828 -0.71874136
0.35991448 -0.009515029 -0.3154092 -0.005154184 0.5020496 -0.5995942 0.06596009 1.0141088
0.27905428 -0.007121118 -0.05803803 0.28861552 -0.24636476 -0.60545933 0.5091734 0.0
0.041786127 0.20875293 -0.7416635 -0.009653458 -0.063855276 -0.009613108 0.0 0.0
-0.009786936 -0.017818013 0.5916048 -0.19915168 0.58767265 0.13637199 -0.033003304 -0.01553468
-0.07518261 -0.08444317 -0.46871102 0.12058057 -0.31600535 0.010059146 -0.3175568 0.004213014
-0.68089527 0.24477 0.3708189 -0.68899894 -0.008382224 -0.6435004 0.25184292 0.12788208
-0.59155643 -0.0022393686 -0.07439027 0.6564065 0.0 0.015014392 0.77749795 -0.36312273
-0.008397946 -0.67547536 -0.729192 -0.019833507 0.0 0.0 -0.1225273 0.0
-0.005696351 -0.42962694 0.0 -0.28132874 -0.56733847 -0.010863758 0.4909195 0.0
-0.00037961465 -0.48068824 0.54112357 -0.35715428 -0.37346783 0.11779831 -0.040552404 -0.26222304
-0.005985968 -0.5935293 0.18811962 -0.37668723 0.6737238 0.43994018 -0.011797461 0.39863834
0.50688285 -0.012928174 0.121767096 -0.13064429 -0.021289302 -0.0059533166 -0.014687545 -0.25831145
0.28711632 -0.7126992 -0.0025666908 0.06740232 -0.010545701 -0.01754571 -0.014131016 0.0
00000000: 341d ecbc d996 09bf fd79 3ebf 5bbd 9ebe
00000010: af69 e6bd 9c1d 86be 2612 bd3b b3db 28bc
00000020: b6ab a13d f065 07bf 4306 7abf 4c07 04bc
00000030: d5e8 c83e 21a1 253f fe04 be3e 4e5d f5be
00000040: 1d36 e5be e53b 133e 2862 57bf 25b0 763d
00000050: 6d61 95bd 0792 173f a3c0 463e 05dd a6bc
00000060: 6dcb d5bd 92f5 b2be 8782 3dbe 7f25 843f
00000070: 0000 0000 fe47 c8bd e5ee 593b 688d fcbd
00000080: f3a4 99bd 4a18 59bf 9a38 dbbd 1a07 11bd
00000090: a002 14bd 0529 d3bc 493b 223c d8b4 043f
000000a0: d9a6 b8bd 522a 04bf f530 9fbe d9df 13bf
000000b0: 0000 0000 0000 0000 0000 0000 8ea7 e2be
000000c0: 0e00 48bf 6f8b 6abf a8d1 7abe 63aa aabe
000000d0: d0fb 173e 1d1c 23be eed9 133e 7cdc 663f
000000e0: 6ca3 ea3d e69c 1bbc 4729 90be e1cf c539
000000f0: 808e bf3e 67c3 bfbd 2d58 c8be 2d56 4abc
00000100: f64d a9bd 1e4d 0a3f cb90 cc3e 234d 94bb
00000110: 4c23 2abb f267 12bd 06aa d33e 1daa 44bc
00000120: e3ad bd3e 0000 0000 fc18 1abd 8d08 34bf
00000130: f4da 503d ad96 acbc aeac a5bb 0000 0000
00000140: 7c7f 873d 302b 7dbc ade1 1abc 50ac ab3e
00000150: 35b3 a53d 2a29 033f 971c e2be 2906 cc3d
00000160: be59 66bf f1b6 b7be 4f07 29bb 3a18 ddbc
00000170: 0000 0000 0000 0000 fd3f 8a3e f886 ccbb
00000180: 0837 aabd dc0d 053f f027 d1bc bba6 c2bb
00000190: af49 8bbc 84b1 2dbc 6fce 04bf 0359 c9be
000001a0: e71e da3e 5325 bdbe eba6 9ebe d65c 70bd
000001b0: 28af 26bf a64b 00bf df29 cabe 79da 39bc
000001c0: 6209 203e 9f63 c4bb f64e cc3e 7c22 ccbb
000001d0: 0000 0000 3ec8 22bf bffc d2bb 0000 0000
000001e0: 3cec 7f3d 54ef f93d 9a4c 823f ce2f 7dbe
000001f0: 399b e0bb 2bbe 7f3f 0000 0000 dad6 5b3f
00000200: 544b 293f d8bb 76bd 8018 b5bd 74ac 52bd
00000210: c21c 5abc 22f9 393e 0000 0000 8264 d3be
00000220: cd2b 83bd 18e5 1f3f 0b35 33bd 0000 0000
00000230: abb3 213f df77 afbe 0d4e e9bc 5b13 44bd
00000240: 9061 c4bb 0000 0000 cef3 28be b653 f9be
00000250: d029 1f3e 182e 7bbe f13a 5fbe 6fff 37bf
00000260: b646 b83e ede4 1bbc 517d a1be 6ee4 a8bb
00000270: 5386 003f 017f 19bf 1516 873d 51ce 813f
00000280: 34e0 8e3e 4458 e9bb 49b9 6dbd 6ac5 933e
00000290: 0b47 7cbe 62ff 1abf 3059 023f 0000 0000
000002a0: ee27 2b3d 54c3 553e a9dd 3dbf 8a29 1ebc
000002b0: 8ec6 82bd 4c80 1dbc 0000 0000 0000 0000
000002c0: 6359 20bc 15f7 91bc 6a73 173f 6bee 4bbe
000002d0: b771 163f 19a5 0b3e 792e 07bd 2c85 7ebc
000002e0: 57f9 99bd 8af0 acbd e4fa efbe f2f2 f63d
000002f0: 74cb a1be 1ecf 243c ce96 a2be 530d 8a3b
00000300: 274f 2ebf fda4 7a3e fadb bd3e 3c62 30bf
00000310: 9855 09bc 71bc 24bf 8ef1 803e 85f3 023e
00000320: 3e70 17bf 5fc2 12bb ed59 98bd 420a 283f
00000330: 0000 0000 edfe 753c 1b0a 473f 39eb b9be
00000340: 8a97 09bc f4eb 2cbf 54ac 3abf e179 a2bc
00000350: 0000 0000 0000 0000 98ef fabd 0000 0000
00000360: 75a8 babb 10f8 dbbe 0000 0000 520a 90be
00000370: 183d 11bf e7fd 31bc cd59 fb3e 0000 0000
00000380: 0407 c7b9 c51c f6be 1387 0a3f eddc b6be
00000390: 2d37 bfbe 3e40 f13d 471a 26bd 1942 86be
000003a0: f025 c4bb 89f1 17bf 6ea2 403e 26dd c0be
000003b0: 2a79 2c3f d73f e13e 234a 41bc 531a cc3e
000003c0: 13c3 013f b1d0 53bc 0761 f93d 9ec7 05be
000003d0: e766 aebc 0a14 c3bb 07a4 70bc 6641 84be
000003e0: e900 933e 7473 36bf ed35 28bb 3a0a 8a3d
000003f0: e0c7 2cbc 05bc 8fbc c785 67bc 0000 0000

model_2/dense_8/MatMul i1 [256, 51] scale=0.017510738 zero_point=0
-0.10506443 0.10506443 -0.017510738 0.087553695 0.035021476 -0.07004295 -0.10506443 0.035021476
-0.035021476 -0.1400859 -0.035021476 0.087553695 -0.035021476 -0.15759665 -0.087553695 0.087553695
-0.017510738 0.052532215 -0.1400859 -0.07004295 0.07004295 0.087553695 0.052532215 -0.10506443
-0.10506443 0.087553695 -0.017510738 0.052532215 -0.017510738 -0.087553695 0.035021476 0.0
-0.122575164 -0.035021476 0.087553695 0.07004295 -0.035021476 -0.122575164 -0.017510738 -0.087553695
-0.087553695 -0.15759665 -0.017510738 0.087553695 -0.017510738 0.035021476 -0.017510738 -0.10506443
0.017510738 -0.017510738 -0.052532215 0.80549395 -0.017510738 0.052532215 0.35021478 0.0
0.3151933 0.43776846 0.052532215 -0.19261812 -0.2276396 0.07004295 0.017510738 -0.42025772
-0.07004295 -0.1400859 -0.8755369 0.07004295 0.33270404 -0.9105584 0.035021476 -0.035021476
-0.07004295 0.15759665 0.052532215 -0.38523623 0.24515033 -0.1400859 0.21012886 -0.52532214
0.10506443 0.35021478 0.26266107 0.15759665 -0.2801718 0.4552792 0.21012886 -0.47278994
0.40274698 -0.07004295 -0.24515033 0.47278994 -0.2801718 -0.2276396 1.0506443 -0.10506443
-0.122575164 0.38523623 -0.15759665 -0.33270404 0.5428329 -0.15759665 -0.43776846 -0.10506443
-0.21012886 -0.38523623 -0.24515033 -0.15759665 -0.35021478 -0.2276396 -0.15759665 -0.087553695
0.0 -0.052532215 -0.15759665 0.21012886 0.07004295 0.52532214 0.33270404 0.10506443
0.5078114 0.10506443 -0.10506443 1.4884127 0.07004295 0.052532215 1.2957946 0.15759665
0.087553695 -0.84051543 -0.42025772 0.17510739 -0.80549395 -0.122575164 0.035021476 0.10506443
0.38523623 0.10506443 0.122575164 0.3151933 -0.15759665 0.07004295 0.33270404 -0.035021476
0.087553695 -0.26266107 0.2276396 0.1400859 -0.1400859 0.21012886 -0.122575164 -0.2276396
-0.10506443 0.9455799 0.087553695 -0.2801718 0.78798324 0.07004295 -0.017510738 0.80549395
0.17510739 -0.122575164 -0.035021476 0.052532215 0.0 0.087553695 -0.035021476 0.2276396
-0.75296175 0.0 0.24515033 -0.89304763 -0.07004295 0.15759665 -0.5603436 -0.035021476
-0.017510738 -0.6128758 -0.3677255 -0.035021476 0.8755369 0.07004295 0.26266107 0.7179403
-0.33270404 -0.1400859 -0.5603436 -0.33270404 0.26266107 -0.85802615 -0.1400859 0.17510739
0.5603436 -0.07004295 0.26266107 0.38523623 -0.035021476 0.19261812 -0.10506443 -0.017510738
-0.2801718 0.035021476 -0.33270404 0.19261812 -0.24515033 -0.017510738 -0.21012886 -0.07004295
0.21012886 -0.052532215 -0.017510738 0.15759665 -0.035021476 0.78798324 -0.017510738 0.052532215
0.77047247 0.122575164 0.10506443 0.6654081 -0.10506443 0.035021476 0.735451 0.1400859
-0.087553695 -0.1400859 -0.29768255 0.15759665 -0.24515033 -0.087553695 0.1400859 -1.6460094
0.21012886 0.052532215 -1.3658376 -0.29768255 0.052532215 0.2276396 0.035021476 -0.10506443
0.29768255 0.21012886 0.017510738 0.052532215 0.42025772 -0.052532215 0.2276396 0.2801718
0.17510739 -0.07004295 -0.21012886 0.122575164 -0.017510738 -0.29768255 0.017510738 -0.017510738
00000000: fa06 ff05 02fc fa02 fef8 fe05 fef7 fb05
00000010: ff03 f8fc 0405 03fa fa05 ff03 fffb 0200
00000020: f9fe 0504 fef9 fffb fbf7 ff05 ff02 fffa
00000030: 01ff fd2e ff03 1400 1219 03f5 f304 01e8
00000040: fcf8 ce04 13cc 02fe fc09 03ea 0ef8 0ce2
00000050: 0614 0f09 f01a 0ce5 17fc f21b f0f3 3cfa
00000060: f916 f7ed 1ff7 e7fa f4ea f2f7 ecf3 f7fb
00000070: 00fd f70c 041e 1306 1d06 fa55 0403 4a09
00000080: 05d0 e80a d2f9 0206 1606 0712 f704 13fe
00000090: 05f1 0d08 f80c f9f3 fa36 05f0 2d04 ff2e
000000a0: 0af9 fe03 0005 fe0d d500 0ecd fc09 e0fe
000000b0: ffdd ebfe 3204 0f29 edf8 e0ed 0fcf f80a
000000c0: 20fc 0f16 fe0b faff f002 ed0b f2ff f4fc
000000d0: 0cfd ff09 fe2d ff03 2c07 0626 fa02 2a08
000000e0: fbf8 ef09 f2fb 08a2 0c03 b2ef 030d 02fa
000000f0: 110c 0103 18fd 0d10 0afc f407 ffef 01ff

model_2/dense_9/MatMul i1 [512, 256] scale=0.027763471 zero_point=0
-0.055526942 -0.055526942 0.1943443 -0.91619456 -0.24987124 0.111053884 -0.027763471 -0.22210777
-0.7218503 -0.055526942 -0.30539817 -0.027763471 -0.3886886 -0.7773772 0.055526942 -1.1105388
-0.055526942 -0.6663233 -0.52750593 0.30539817 0.16658083 0.027763471 0.111053884 -0.027763471
0.055526942 -0.44421554 0.027763471 -0.1943443 -0.08329041 -1.2215927 0.027763471 -0.08329041
0.22210777 0.1943443 -0.41645205 -0.055526942 0.08329041 0.0 -0.44421554 0.055526942
-0.13881736 0.41645205 0.13881736 0.30539817 0.055526942 0.0 0.055526942 -0.24987124
-0.16658083 0.1943443 0.13881736 0.30539817 -1.1105388 -0.055526942 -1.3048831 -0.47197902
-0.111053884 -0.055526942 -0.08329041 -1.3881736 0.111053884 -0.6385598 0.08329041 -0.027763471
0.0 0.16658083 0.16658083 0.0 -0.3886886 0.08329041 -0.49974248 0.08329041
-0.49974248 -0.055526942 -0.027763471 0.36092514 -0.5552694 0.027763471 0.055526942 -0.055526942
-0.3886886 -0.055526942 -0.055526942 -0.8606676 0.22210777 -0.6663233 0.30539817 0.027763471
-0.111053884 0.08329041 -0.08329041 0.08329041 -0.027763471 0.055526942 -0.30539817 -0.027763471
0.33316165 -1.0827754 0.055526942 0.027763471 0.027763471 -0.055526942 0.055526942 -0.5552694
0.24987124 -0.055526942 0.027763471 -0.16658083 -0.8606676 -0.13881736 -0.08329041 0.0
-0.44421554 -1.3048831 -0.8606676 0.0 -0.08329041 -1.5825179 0.08329041 0.055526942
0.027763471 -0.6663233 0.0 -0.7218503 -0.055526942 -0.8606676 0.027763471 -0.2776347
-0.8051407 -0.055526942 -0.6385598 -1.3048831 0.08329041 -0.49974248 0.027763471 -0.8606676
0.0 -1.2493562 -0.08329041 -0.027763471 -0.027763471 -0.52750593 -0.055526942 0.08329041
-0.08329041 -0.08329041 -0.5830329 0.22210777 -0.16658083 -0.8606676 0.22210777 -0.49974248
-0.16658083 0.055526942 0.24987124 0.055526942 -1.8323891 0.16658083 -0.13881736 -2.2766047
-0.055526942 0.0 0.027763471 0.24987124 -1.6935717 0.1943443 0.08329041 -0.027763471
-0.52750593 0.13881736 0.08329041 0.027763471 -0.24987124 0.08329041 0.027763471 -0.027763471
-0.027763471 -0.027763471 -0.24987124 0.22210777 -0.055526942 -0.5830329 0.111053884 -0.055526942
0.36092514 -0.5830329 0.08329041 -0.8051407 0.33316165 -0.94395804 -0.8606676 -0.16658083
0.111053884 0.6385598 -0.7773772 0.027763471 -0.055526942 0.13881736 0.0 0.24987124
-0.111053884 -0.027763471 0.13881736 -0.6663233 0.027763471 -1.2215927 -0.36092514 -0.41645205
0.111053884 0.111053884 0.111053884 -0.08329041 -0.055526942 -0.08329041 0.22210777 -0.055526942
-0.027763471 0.61079633 0.027763471 0.2776347 0.1943443 0.027763471 -0.027763471 0.027763471
-0.055526942 0.44421554 -0.36092514 -0.91619456 0.22210777 -0.8051407 0.0 0.1943443
-0.027763471 0.36092514 0.055526942 0.16658083 -1.4437006 0.52750593 0.08329041 -0.36092514
0.24987124 -0.027763471 -0.055526942 0.24987124 0.027763471 0.0 -0.027763471 0.6940868
-1.0827754 0.1943443 0.027763471 -0.44421554 0.0 0.055526942 0.111053884 -0.027763471
00000000: fefe 07df f704 fff8 e6fe f5ff f2e4 02d8
00000010: fee8 ed0b 0601 04ff 02f0 01f9 fdd4 01fd
00000020: 0807 f1fe 0300 f002 fb0f 050b 0200 02f7
00000030: fa07 050b d8fe d1ef fcfe fdce 04e9 03ff
00000040: 0006 0600 f203 ee03 eefe ff0d ec01 02fe
00000050: f2fe fee1 08e8 0b01 fc03 fd03 ff02 f5ff
00000060: 0cd9 0201 01fe 02ec 09fe 01fa e1fb fd00
00000070: f0d1 e100 fdc7 0302 01e8 00e6 fee1 01f6
00000080: e3fe e9d1 03ee 01e1 00d3 fdff ffed fe03
00000090: fdfd eb08 fae1 08ee fa02 0902 be06 fbae
000000a0: fe00 0109 c307 03ff ed05 0301 f703 01ff
000000b0: ffff f708 feeb 04fe 0deb 03e3 0cde e1fa
000000c0: 0417 e401 fe05 0009 fcff 05e8 01d4 f3f1
000000d0: 0404 04fd fefd 08fe ff16 010a 0701 ff01
000000e0: fe10 f3df 08e3 0007 ff0d 0206 cc13 03f3
000000f0: 09ff fe09 0100 ff19 d907 01f0 0002 04ff

model_2/dense_10/MatMul i1 [128, 512] scale=0.016467573 zero_point=0
-0.06587029 0.14820816 0.37875417 -0.11527301 0.06587029 -0.39522177 -0.14820816 -0.52696234
-0.5598975 -0.032935146 0.06587029 -1.2021328 -0.5434299 -0.16467573 -0.26348117 -0.23054603
-1.0539247 0.13174058 -0.8069111 0.04940272 -0.016467573 0.2964163 -0.37875417 -0.52696234
-0.11527301 -0.83984625 0.14820816 0.37875417 -0.8069111 -0.23054603 0.19761088 -0.57636505
0.3622866 0.16467573 -0.34581903 -0.8727814 0.21407846 0.0 -0.4940272 0.31288388
0.082337864 -0.13174058 0.21407846 -0.6587029 -0.4281569 -0.46109205 -0.51049477 -0.082337864
-0.52696234 0.21407846 0.11527301 -0.16467573 0.5434299 -0.69163805 0.23054603 0.1811433
-0.6587029 0.1811433 0.23054603 -0.31288388 0.09880544 0.0 -0.79044354 0.46109205
0.082337864 0.2470136 -0.26348117 0.2470136 0.31288388 -0.7245732 -0.47755963 0.14820816
-0.39522177 0.2964163 -0.19761088 -0.016467573 -0.6587029 0.2470136 0.032935146 -0.4940272
-0.032935146 -0.7081056 0.2470136 0.032935146 -0.082337864 -0.44462448 0.14820816 -0.8727814
0.14820816 -0.6587029 -1.0374571 0.14820816 -0.41168934 -0.1811433 -0.09880544 -0.44462448
-0.16467573 -0.6751705 -0.04940272 0.016467573 -1.0539247 -0.62576777 -0.4940272 0.4940272
0.0 -0.06587029 0.04940272 -1.1691977 0.26348117 0.082337864 -0.19761088 0.13174058
-0.8069111 -0.3622866 -0.21407846 0.26348117 0.26348117 -0.34581903 -0.5928326 -0.3622866
0.0 -0.082337864 -0.082337864 -0.4940272 0.13174058 0.27994874 0.06587029 0.09880544
-0.14820816 0.082337864 -1.1362625 0.16467573 0.31288388 0.23054603 -0.13174058 0.06587029
-0.06587029 0.11527301 -0.57636505 -0.6093002 0.27994874 0.39522177 0.79044354 -0.14820816
0.0 -0.2964163 -0.26348117 -0.04940272 -0.69163805 0.4281569 -0.14820816 -0.9221841
-0.23054603 0.032935146 -0.31288388 -0.32935145 -0.34581903 -0.26348117 0.27994874 0.0
-1.2680031 0.32935145 -0.88924897 -0.83984625 -0.13174058 -0.5928326 -0.016467573 0.016467573
-0.62576777 -0.082337864 -0.082337864 -0.06587029 -0.06587029 -0.19761088 -0.5434299 -0.39522177
0.27994874 0.23054603 0.13174058 0.23054603 -0.06587029 -0.1811433 -0.11527301 -0.16467573
0.11527301 -0.06587029 -0.52696234 -0.79044354 -0.6093002 -0.4940272 0.04940272 -0.79044354
0.0 -0.37875417 0.16467573 -0.14820816 -0.06587029 -0.082337864 0.0 -0.4281569
0.13174058 -0.6093002 -0.5598975 0.16467573 -0.51049477 -0.082337864 0.44462448 -0.3622866
-0.19761088 -0.14820816 0.016467573 0.2964163 0.04940272 0.04940272 0.04940272 0.32935145
0.06587029 -0.26348117 -0.04940272 -0.04940272 -1.2021328 0.04940272 -0.62576777 0.016467573
-0.27994874 -0.09880544 -0.23054603 -0.06587029 -0.31288388 0.082337864 -0.04940272 -0.69163805
-0.19761088 -0.32935145 -0.95511925 0.016467573 -1.0209895 -0.27994874 0.13174058 0.34581903
0.13174058 -0.32935145 -0.13174058 0.2470136 0.2964163 -0.62576777 -0.14820816 -0.39522177
-0.082337864 -0.88924897 0.19761088 0.0 -0.8727814 -0.46109205 0.0 0.082337864
00000000: fc09 17f9 04e8 f7e0 defe 04b7 dff6 f0f2
00000010: c008 cf03 ff12 e9e0 f9cd 0917 cff2 0cdd
00000020: 160a ebcb 0d00 e213 05f8 0dd8 e6e4 e1fb
00000030: e00d 07f6 21d6 0e0b d80b 0eed 0600 d01c
00000040: 050f f00f 13d4 e309 e812 f4ff d80f 02e2
00000050: fed5 0f02 fbe5 09cb 09d8 c109 e7f5 fae5
00000060: f6d7 fd01 c0da e21e 00fc 03b9 1005 f408
00000070: cfea f310 10eb dcea 00fb fbe2 0811 0406
00000080: f705 bb0a 130e f804 fc07 dddb 1118 30f7
00000090: 00ee f0fd d61a f7c8 f202 edec ebf0 1100
000000a0: b314 cacd f8dc ff01 dafb fbfc fcf4 dfe8
000000b0: 110e 080e fcf5 f9f6 07fc e0d0 dbe2 03d0
000000c0: 00e9 0af7 fcfb 00e6 08db de0a e1fb 1bea
000000d0: f4f7 0112 0303 0314 04f0 fdfd b703 da01
000000e0: effa f2fc ed05 fdd6 f4ec c601 c2ef 0815
000000f0: 08ec f80f 12da f7e8 fbca 0c00 cbe4 0005

model_2/dense_11/MatMul i1 [256, 128] scale=0.015922561 zero_point=0
-0.07961281 -0.36621892 -0.07961281 0.12738049 -0.35029635 -0.15922561 0.42990917 -0.19107074
-0.14330305 -0.31845123 -0.4139866 -0.12738049 -0.22291586 0.2069933 0.047767684 -0.25476098
-0.22291586 -0.063690245 0.15922561 -0.25476098 0.015922561 0.33437377 -0.15922561 -0.031845123
0.0 0.23883842 -0.30252868 0.0 -0.15922561 -0.047767684 -0.35029635 0.27068353
-0.09553537 0.11145793 -0.031845123 0.12738049 -0.07961281 -0.4139866 -0.12738049 0.0
-0.09553537 -0.07961281 0.27068353 -0.15922561 -0.25476098 0.4139866 -0.25476098 -0.5254445
-0.09553537 0.22291586 -0.17514817 -0.31845123 0.0 0.17514817 -0.14330305 -0.23883842
-0.4139866 0.12738049 0.23883842 -0.22291586 -0.17514817 0.063690245 -0.2866061 -0.38214147
-0.047767684 -0.047767684 -0.063690245 0.12738049 -0.25476098 -0.30252868 -0.015922561 -0.23883842
-0.23883842 0.27068353 -0.15922561 -0.063690245 -0.063690245 -0.33437377 -0.11145793 -0.14330305
0.047767684 0.19107074 -0.46175426 0.07961281 -0.73243785 -0.25476098 -0.07961281 -0.063690245
-0.30252868 -0.2866061 -0.15922561 -0.11145793 -0.11145793 -0.4935994 -0.09553537 -0.7483604
-0.30252868 -0.84389573 -0.22291586 -0.031845123 -0.15922561 0.2069933 -0.047767684 -1.0031214
0.14330305 0.12738049 0.07961281 0.17514817 -0.12738049 -0.38214147 0.063690245 -0.14330305
-0.23883842 0.031845123 -0.031845123 -0.063690245 0.015922561 -0.15922561 -0.15922561 -0.12738049
0.19107074 -0.12738049 -0.19107074 0.07961281 -0.09553537 -0.063690245 0.047767684 0.12738049
-0.07961281 -0.30252868 -0.063690245 0.14330305 -0.30252868 -0.6209799 -0.047767684 -0.27068353
0.15922561 0.19107074 0.09553537 -0.2069933 -0.15922561 0.12738049 0.09553537 0.38214147
-0.73243785 -0.44583172 -0.063690245 -0.5254445 0.031845123 -0.063690245 0.2069933 -0.22291586
0.38214147 -0.07961281 -0.14330305 -0.07961281 -0.09553537 0.0 -0.31845123 -0.36621892
0.15922561 -0.031845123 -0.31845123 -0.17514817 -0.031845123 -0.22291586 -0.22291586 -0.11145793
-0.07961281 0.0 0.55728966 0.2069933 -0.4139866 -0.15922561 0.11145793 0.22291586
-0.063690245 0.0 -0.4935994 0.11145793 -0.15922561 -0.23883842 -0.07961281 -0.17514817
-0.5254445 -0.031845123 0.09553537 -0.17514817 -0.23883842 -0.42990917 -0.14330305 -0.30252868
-0.30252868 -0.44583172 0.031845123 0.17514817 -0.27068353 -0.35029635 0.0 0.07961281
-0.33437377 -0.36621892 -0.12738049 0.19107074 0.19107074 0.031845123 -0.39806402 -0.33437377
0.0 0.047767684 0.17514817 -0.14330305 0.047767684 -0.14330305 0.15922561 -0.11145793
-0.54136705 -0.55728966 0.0 -0.30252868 0.015922561 -0.09553537 0.063690245 -0.907586
0.0 -0.33437377 0.031845123 -0.30252868 -0.2069933 0.30252868 0.047767684 0.17514817
0.14330305 -0.031845123 -0.4935994 0.11145793 -0.09553537 -0.33437377 0.68467015 0.031845123
-0.36621892 0.2866061 -0.047767684 -0.35029635 0.17514817 -0.11145793 0.15922561 -0.5732122
0.063690245 -0.27068353 -0.68467015 0.07961281 -0.79612803 -0.17514817 0.0 -0.35029635
00000000: fbe9 fb08 eaf6 1bf4 f7ec e6f8 f20d 03f0
00000010: f2fc 0af0 0115 f6fe 000f ed00 f6fd ea11
00000020: fa07 fe08 fbe6 f800 fafb 11f6 f01a f0df
00000030: fa0e f5ec 000b f7f1 e608 0ff2 f504 eee8
00000040: fdfd fc08 f0ed fff1 f111 f6fc fceb f9f7
00000050: 030c e305 d2f0 fbfc edee f6f9 f9e1 fad1
00000060: edcb f2fe f60d fdc1 0908 050b f8e8 04f7
00000070: f102 fefc 01f6 f6f8 0cf8 f405 fafc 0308
00000080: fbed fc09 edd9 fdef 0a0c 06f3 f608 0618
00000090: d2e4 fcdf 02fc 0df2 18fb f7fb fa00 ece9
000000a0: 0afe ecf5 fef2 f2f9 fb00 230d e6f6 070e
000000b0: fc00 e107 f6f1 fbf5 dffe 06f5 f1e5 f7ed
000000c0: ede4 020b efea 0005 ebe9 f80c 0c02 e7eb
000000d0: 0003 0bf7 03f7 0af9 dedd 00ed 01fa 04c7
000000e0: 00eb 02ed f313 030b 09fe e107 faeb 2b02
000000f0: e912 fdea 0bf9 0adc 04ef d505 cef5 00ea

model_2/pose/MatMul i1 [14, 256] scale=0.039364815 zero_point=0
0.039364815 -0.31491852 -0.039364815 -0.23618889 -0.35428333 -0.15745926 0.0 -0.2755537
-0.2755537 -0.039364815 -0.039364815 -0.15745926 -0.31491852 -0.5117426 0.0 -0.039364815
0.039364815 -0.039364815 -0.039364815 -0.5904722 0.039364815 -0.39364815 -0.70856667 0.039364815
-0.15745926 -0.2755537 -0.47237778 -0.23618889 0.07872963 -0.31491852 0.039364815 0.15745926
0.039364815 -0.94475555 -0.31491852 0.0 -0.2755537 -0.5904722 -0.62983704 -0.66920185
-0.2755537 -0.31491852 -0.7872963 -0.23618889 -0.039364815 -0.07872963 -0.47237778 -0.35428333
-0.31491852 -0.07872963 -0.2755537 -0.23618889 -0.039364815 0.23618889 -0.118094444 -0.118094444
0.0 -0.35428333 0.0 -0.5904722 0.15745926 -0.07872963 -0.039364815 -0.118094444
-0.39364815 -0.118094444 -0.19682407 -0.118094444 -0.039364815 -0.23618889 -0.118094444 -0.039364815
0.07872963 -0.31491852 -0.2755537 0.039364815 -0.118094444 -0.118094444 -0.039364815 -0.07872963
-0.19682407 -0.5117426 0.039364815 -0.15745926 -0.31491852 0.039364815 -0.35428333 -0.2755537
-0.07872963 -0.15745926 -0.039364815 0.039364815 -0.23618889 -0.039364815 -0.39364815 -0.19682407
-0.15745926 -0.15745926 -0.35428333 -0.66920185 0.039364815 -0.118094444 -0.15745926 -0.15745926
-0.118094444 0.039364815 -0.47237778 -0.07872963 -0.62983704 -0.15745926 -0.2755537 0.118094444
-1.8895111 0.07872963 -0.23618889 -0.19682407 -0.19682407 0.07872963 -0.039364815 -0.39364815
-0.118094444 -0.35428333 -0.19682407 0.039364815 -0.31491852 0.039364815 -0.118094444 -0.31491852
-0.07872963 -0.19682407 -0.039364815 -0.31491852 0.039364815 -0.07872963 -0.23618889 -0.19682407
-0.15745926 0.118094444 0.039364815 -0.118094444 -0.2755537 0.039364815 -0.47237778 -0.7872963
-0.5117426 -0.23618889 -0.039364815 -0.039364815 -0.07872963 -0.39364815 -0.15745926 0.039364815
-0.039364815 -0.118094444 -0.19682407 -0.23618889 -0.07872963 -0.07872963 -0.15745926 -0.23618889
-0.118094444 -0.43301296 -0.19682407 -0.62983704 -0.23618889 -0.31491852 -0.5117426 -0.2755537
-0.62983704 -0.47237778 -0.43301296 0.23618889 -0.31491852 -0.39364815 -0.15745926 -0.5904722
-0.43301296 -0.7479315 -0.43301296 0.039364815 -0.43301296 -0.31491852 -0.43301296 0.039364815
-0.19682407 0.118094444 -0.31491852 -0.118094444 -0.039364815 0.07872963 -0.039364815 -0.5511074
-0.118094444 -0.31491852 -0.118094444 -0.2755537 -0.15745926 -0.15745926 -0.39364815 -0.19682407
-0.7479315 -0.5117426 -0.94475555 0.039364815 -0.2755537 -0.35428333 -0.31491852 -0.07872963
-0.31491852 -0.23618889 -0.35428333 -0.07872963 -0.8266611 -0.15745926 -0.07872963 0.118094444
0.0 -0.19682407 -0.35428333 -0.118094444 -0.07872963 -0.15745926 0.0 -0.5117426
-0.23618889 0.07872963 -0.31491852 -0.07872963 -0.47237778 -0.039364815 0.039364815 -0.19682407
-0.039364815 -0.118094444 -0.118094444 -0.15745926 -0.118094444 0.0 0.039364815 -0.2755537
-0.039364815 -0.43301296 -0.5511074 -0.2755537 -0.039364815 -0.15745926 -0.15745926 -0.15745926
0.23618889 -0.118094444 -0.35428333 -0.2755537 -0.31491852 -0.31491852 -0.07872963 -0.7872963
00000000: 01f8 fffa f7fc 00f9 f9ff fffc f8f3 00ff
00000010: 01ff fff1 01f6 ee01 fcf9 f4fa 02f8 0104
00000020: 01e8 f800 f9f1 f0ef f9f8 ecfa fffe f4f7
00000030: f8fe f9fa ff06 fdfd 00f7 00f1 04fe fffd
00000040: f6fd fbfd fffa fdff 02f8 f901 fdfd fffe
00000050: fbf3 01fc f801 f7f9 fefc ff01 faff f6fb
00000060: fcfc f7ef 01fd fcfc fd01 f4fe f0fc f903
00000070: d002 fafb fb02 fff6 fdf7 fb01 f801 fdf8
00000080: fefb fff8 01fe fafb fc03 01fd f901 f4ec
00000090: f3fa ffff fef6 fc01 fffd fbfa fefe fcfa
000000a0: fdf5 fbf0 faf8 f3f9 f0f4 f506 f8f6 fcf1
000000b0: f5ed f501 f5f8 f501 fb03 f8fd ff02 fff2
000000c0: fdf8 fdf9 fcfc f6fb edf3 e801 f9f7 f8fe
000000d0: f8fa f7fe ebfc fe03 00fb f7fd fefc 00f3
000000e0: fa02 f8fe f4ff 01fb fffd fdfc fd00 01f9
000000f0: fff5 f2f9 fffc fcfc 06fd f7f9 f8f8 feec
