Model/Trainer/model/pose_classifier.tflite (tflite, 51072 bytes, 12 tensors)

model_3/pose/MatMul f4 [5, 128]
00000000: ccf0 db3d c4dc aabf 283e 86be 0600 063e
00000010: c211 593e 41e0 453d 2ebd 853d 888d 7e3f
00000020: 5d6d e8bd 52b1 123f 76ca 3b3e 55cc b93d
00000030: f9c4 7d3f 6e6e 053e 4b78 4b3e 9a8a 003e
00000040: afdf 273e f401 ab3e 5473 febe fac2 d33b
00000050: 3b5b 743d fb98 693d b3ae 803e 0219 383c
00000060: d17c ad3e b03c b53d ef08 ae3d 1782 91bd
00000070: 4187 1a3d 8742 af3d c6a1 b83d 3d28 1c3b
00000080: 2328 593e f0ac 4fbe 26e7 c53c ba24 6f3f
00000090: 2e8d 7d3d f912 a8bf 6bca 1d3e ffba 0dbe
000000a0: e7df 2b3e 3680 843d 6907 c0bf 1a71 da3d
000000b0: 2ae9 d5bd b310 40bd 3c8a 503e 1203 233d
000000c0: 6e84 033e d83c 1e3d 8abc 0d3e 7694 4d3e
000000d0: 31f9 4a3f 0f20 aabd c6ec 793e 134c 1d3e
000000e0: 46f4 293e cd95 db3d 064f 5d3e 1307 883d
000000f0: f315 38be f4d0 813e ff7a 7ebe 2fd2 65bc
00000100: 6e76 5a3d 92ca 1b3e 0d4e d33d c8d3 303e
00000110: ba50 82bb a48f 863e 7339 833d 5749 423f
00000120: 07eb 36bb 5810 e63e 3688 bcbc a026 363d
00000130: 6549 0d3e f8c1 8d3e 392d 1e3d da4b c23e
00000140: 7bba 6c3e a8cc 463e 755c 313e db6a 0e3e
00000150: 7751 873d 705a 033e f93d db3b 9670 1abf
00000160: 8447 a3bf 6d52 f43d 58f1 5b3e 49b7 2f3f
00000170: de8c 733d b5d0 0ebf 2a4a 91bf 74ce 51bf
00000180: 632f 04be 3a64 003e cc2b 183f 3230 0b3e
00000190: ece8 ce3d 004f c13e b5c1 49be 0098 2c3e
000001a0: 46d9 debd b575 84bf 5b5c f83d b979 7dbe
000001b0: 6af7 f1bd d350 94bd f51b 98bf 2caf 373e
000001c0: c73c 5fbd b886 733f 01de 8f3d 6729 4cbe
000001d0: 8e60 073f 13dd 6e3e b72b a7be 1162 153d
000001e0: 6fa4 643e 2ac5 b7bf e9b1 07be 89da 8dbf
000001f0: 51f3 763c d410 2d3e 4f44 503c 0e3e 233f
00000200: 083f e63d f17b a1bd 4f05 a73c 54be 153d
00000210: 13de 1b3e 3faf e7be d993 3b3b 7fe4 c5bf
00000220: b961 a93d 62a0 59bf a9ea 373e 24a9 ee3d
00000230: 8b42 bbbf ebd0 7bbe ea0c a73d 1a84 7d3d
00000240: 7afc e63d 2d11 2ebf 3d4b a5bf cc22 c53d
00000250: 7084 513e 1d4f ed3b b39b 293e 1e12 e63a
00000260: 4e9f a53e 965c d23b 30d0 723d 04da 0abd
00000270: dc05 023d a657 d13d 40c7 fb3d e654 05ba
00000280: 2267 ffbd 1c80 5fbc fe00 1cbd 09e2 9abf
00000290: f7ef 4f3d b602 07be 0f97 1b3d 745f a03c
000002a0: fbb4 1b3e 5449 c53c 3411 67bd 25ea 6fbd
000002b0: b25f afbc 436d 10be 9a79 31be 049a 853c
000002c0: 726d ec3d a9fa d63c e952 1a3e 164a d63d
000002d0: 45e7 c9bf a2bb aebd e540 b33d 2b04 8e3d
000002e0: c5d3 4a3e 3fc6 ca3d e0c5 593e 5d3b f53c
000002f0: 2b36 863b 52a2 063e 0b8b 653b 2555 7a3b
00000300: f45d e8bb bfe7 e23d d2f7 fc3d 5e4d 323e
00000310: 5726 923c cce3 483e 0f3c 9fbb e586 1cbe
00000320: b11e fbb9 d883 e2be 30e1 b5bc 6770 bebb
00000330: 6608 5c3d 7966 6ebf 1b78 bd3b 2bc5 cabf
00000340: daa1 ad3d 58bd e13d 0a58 f23d db3c 9b3d
00000350: edf4 cc3d 234b e2bf 2e95 4a3c 38de 73bb
00000360: adcf 96bb 1e54 f73d 522e 9b3d 68ef 0cc0
00000370: 86df 283d c6d5 223d 99fb 9a3d 2a41 3dbf
00000380: a920 2c3c 1e2d 493e 480f 4cbf 3e6f 873d
00000390: add1 7ebb 801f bebe 01fe 41be c566 e43d
000003a0: 594f 583c d85f aebd 2714 d43c fbbc ab3d
000003b0: 64d5 7c3c 8719 89bf ebcd e2bf 9bc1 9abe
000003c0: 1cd3 933b a3ac b5bf 9e01 c8bc 821f d33a
000003d0: a3bc 81be c900 1a3e 019b eabd bf87 9f3c
000003e0: b3b1 8a3e bb7f a0bd 9ee4 c63c 63f8 0fbf
000003f0: 2d39 483d 457b dd3d 1338 d0bc d3e6 a6bf
0.10739288 -1.3348622 -0.26219296 0.13085946 0.2119818 0.04830957 0.06530224 0.9943471
-0.113489844 0.5730182 0.18338951 0.09072176 0.9912868 0.13030407 0.19870107 0.12552872
0.16393922 0.33399928 -0.49697363 0.006462452 0.059657317 0.05703066 0.25133285 0.011236431
0.3388429 0.08849466 0.08497798 -0.07104891 0.037726644 0.08557611 0.09015231 0.0023827695
0.21206717 -0.20280814 0.024158072 0.93415415 0.061902218 -1.313079 0.15409248 -0.13840865
0.1678463 0.06469767 -1.5002261 0.10666104 -0.10444863 -0.046890926 0.20365232 0.03979785
0.12843487 0.038632244 0.13841453 0.20076165 0.79286486 -0.08306896 0.24406728 0.15361051
0.16597089 0.107219316 0.21612176 0.06641974 -0.17977123 0.2535473 -0.24851607 -0.014027162
0.0533356 0.15213993 0.103176214 0.17268288 -0.0039769085 0.26281464 0.06407442 0.7589316
-0.0027911083 0.44934344 -0.02301417 0.04447043 0.13797529 0.2768705 0.038617346 0.37948495
0.23118012 0.19414008 0.17320426 0.1390795 0.06607335 0.12827468 0.0066907373 -0.6032804
-1.27562 0.11929784 0.21478784 0.68639046 0.059460513 -0.5578721 -1.1350758 -0.8195565
-0.12908702 0.12538233 0.5944183 0.13592604 0.1010302 0.37755585 -0.197028 0.16854858
-0.10881285 -1.0348421 0.121269904 -0.24753465 -0.118147686 -0.072419785 -1.1883532 0.17937917
-0.05450132 0.9512744 0.07024766 -0.19937669 0.52881706 0.2332652 -0.3265054 0.036470477
0.22328351 -1.4357045 -0.13251461 -1.1082317 0.01507266 0.1690095 0.012711599 0.6376656
0.11242491 -0.07884968 0.020388274 0.036558464 0.15221433 -0.4525089 0.002862206 -1.5460356
0.08270592 -0.8501035 0.1796061 0.11653355 -1.4629682 -0.24591415 0.0815676 0.06189356
0.11278625 -0.6799496 -1.2913586 0.096257776 0.20460677 0.007242097 0.16563301 0.0017553007
0.32348102 0.0064197285 0.059280574 -0.033899322 0.03174387 0.10221796 0.12293863 -0.0005086198
-0.12470843 -0.0136413835 -0.038086884 -1.210023 0.050765958 -0.13184628 0.037985858 0.019576766
0.15205757 0.024082817 -0.05641289 -0.058572907 -0.021407936 -0.1410418 -0.17331544 0.016308792
0.115443125 0.026242571 0.1507069 0.104633495 -1.5773703 -0.08531882 0.08752612 0.06934389
0.19807346 0.09901094 0.2126689 0.029935533 0.004095813 0.13147858 0.0035025503 0.0038197723
-0.007091278 0.11079358 0.123519555 0.17412326 0.017840547 0.19618148 -0.0048594545 -0.15285833
-0.00047897318 -0.44241214 -0.022202104 -0.0058117392 0.053718947 -0.9312511 0.00578214 -1.5841421
0.08478136 0.110224426 0.11833198 0.07579967 0.100076534 -1.767918 0.012364669 -0.003721131
-0.0046023936 0.12076591 0.07577194 -2.2021122 0.041228794 0.03975465 0.0756752 -0.7392756
0.010505834 0.19646117 -0.7971082 0.06613015 -0.00388823 -0.37133408 -0.18944551 0.11152414
0.013202512 -0.085143745 0.025888516 0.083856545 0.015431736 -1.0710915 -1.7719091 -0.30225834
0.00451125 -1.419331 -0.024414834 0.0016107413 -0.2533923 0.15039362 -0.11455346 0.019473908
0.270887 -0.07836863 0.024278935 -0.56238383 0.048882652 0.108145274 -0.025417363 -1.3039192

model_3/direction/MatMul f4 [2, 128]
00000000: 445b c43e 3f6b 15be c1b8 4fbe 465a 053e
00000010: da7a 36be 8dbc 5abe b2a7 2d3d 5f5f 703b
00000020: 37dd 1ebe ede1 c6bd 3ecf 08be f045 3c3c
00000030: 2662 63bf 2582 373e 3e3f 563e e8d1 a93d
00000040: 1105 263f e1f6 1bbe ca41 8dbe aa91 01be
00000050: 5605 893d 1380 3c3e 882e f0bc 4665 dabd
00000060: 69fd 663f 2dfe 0e3c dd52 9e3e a5ac 143e
00000070: 3ef1 153f 5792 c8bd 0183 c8be 299b f7bd
00000080: e818 9fbd 12b5 e73d fa81 843e 537a 9e3c
00000090: f528 ac3e f507 c7bd 7a1a 473e 4865 2dbe
000000a0: 8aae 1c3f 2b1b 5d3e 43cc 723d 86c8 23bc
000000b0: 72b5 103e ffcf eb3d f970 40bd 087a 7f3e
000000c0: d575 0c3d e769 a43d 3af5 a7bd 760b 193e
000000d0: 9398 85bc 94eb 8abd 4caf 283e e595 293e
000000e0: 2f95 3bbe 3019 2c3e fd74 813f 0132 1d3e
000000f0: c3ca 57be 7082 2f3f 2ba9 83be 90f3 73bc
00000100: 7d17 143f ce69 0ebe b2c8 3fbd 97bb 133f
00000110: f813 87bb 7d68 4b3e 83da 983d 3928 cbbc
00000120: cfc4 7ebd 5c3f 2abd 4327 a1bd 3c56 033f
00000130: 540d 093f b0a7 08bf 77bf b33d f457 3cbd
00000140: 508d 043f 6668 613e 402b f1bd 8de6 a6bd
00000150: d4fa acbd 58c4 77bd 0232 183e 4a8f 88be
00000160: 3cc0 303d c835 073d 4641 113f 4a3f 3bbf
00000170: e57c 103e f23d 113e 6018 39bc e0d5 1dbd
00000180: 2b86 c6be 20ea 2d3e 3457 123a 978e 203f
00000190: ab63 d63e e2a8 b73d 0a53 98bd 7021 38bb
000001a0: bd83 3e3e d6bc 24be a914 b43e 43b4 1fbe
000001b0: 6350 d4ba 0ac3 a03e 96fe 023f 295f dbbe
000001c0: 9c5b 4b3e 5733 36bf 3795 df3d 49b7 0abd
000001d0: 1fe2 633c 5828 1b3f 850e d33d 38a4 88bd
000001e0: 2d3f 6a3d 62ba 1bbd fca6 2bbd ea87 dbbd
000001f0: 37a3 92be 1223 853e 05a8 8c3e 916f 8e3d
00000200: 3995 e1be fd9b f8bd 4fe9 5fbd 2b89 40be
00000210: fa7d 54be 700c 8d3c d9bd c83d 16c9 2cbe
00000220: 2f90 40be adf4 8cbc a2cb d8bd d7b7 ffbd
00000230: ddb0 453f 9216 953d 301a 79be 3291 c5be
00000240: 1d38 46bf c610 14be add1 d53e 0a01 8f3d
00000250: 23ac fa3d ca74 09be 018c 53be 6f9e 94bd
00000260: b42f 81bf 27b9 ca3d d7b0 49be 9b19 5fbe
00000270: 3e69 34bf ad39 20bd 6e20 023e 39e8 0dbe
00000280: cf5c 523e efa0 bd3d 3a5b b0be 8a17 48be
00000290: b9de c9be 9fab 933b 24f5 86be 1568 4cbe
000002a0: 562a f9be ab5b abbe 2ca9 793d b85a 143e
000002b0: 2b01 113d e6cb fdbd 636e f0bc 85ee c5bd
000002c0: fc58 7f3d 799e 19be 471c babd 6be5 84be
000002d0: c3d5 f13d a50b d5bd fa69 b3be 65dc e4be
000002e0: 6309 903e cc18 d43d 3f92 63bf a1c4 d1bd
000002f0: bbbf e63b 5132 12bf 1eb1 663e 568d c1bd
00000300: ddfd c5be 2591 e5bd ab3c 163e 8143 1bbf
00000310: 93e2 67bd 8ee8 073d 7d51 83bc 51e3 d33c
00000320: 7293 933d 12bc 033e bdbc b23d 4573 b4be
00000330: 8657 ecbe df5c 293f 9c7e 04be 538d 753e
00000340: eaae 7abe 362e ce3d 885f e53c 42eb 553e
00000350: f220 303e 9883 343d b2e3 85bd 75d1 913e
00000360: 18e8 033e 89e1 7cbd 13b6 c3be 68b2 4d3f
00000370: 4705 13be 1907 d33d 56f3 eb3d cc7b 503e
00000380: 676f 903c caf3 9fbe 7ba9 883b 2c78 a1be
00000390: d73c babe 498d 063c e350 273e 7a56 ec3d
000003a0: f382 803d 32df fcbd 6a18 0abf 313e 4b3d
000003b0: f81f afbd 5ec9 cebe bee5 3ebe 7030 963d
000003c0: 7fa7 85bd d169 5b3f 14d7 2bbe a604 38be
000003d0: dd11 fa3c 1c3a 00bf 50e1 b5bc 9df5 353d
000003e0: 0a0e 873e 92cb a239 0b30 13bd d3ea b7bd
000003f0: e88c 6fbd 8063 75be 7b2a c9bd 7644 713c
0.3835088 -0.14591692 -0.20285322 0.13022718 -0.17820302 -0.21360989 0.042396255 0.003667794
-0.15514074 -0.09711061 -0.13360307 0.011491284 -0.8882164 0.1792074 0.20922562 0.082919896
0.6485148 -0.15230896 -0.27589256 -0.12653223 0.06690471 0.18408231 -0.029319063 -0.106638476
0.90230423 0.008727592 0.30922595 0.14518984 0.5857123 -0.09793537 -0.39162448 -0.12090141
-0.07768422 0.11313833 0.25880414 0.019345438 0.33624998 -0.097183146 0.19443694 -0.16933167
0.61203825 0.21592395 0.05927683 -0.009996539 0.14131716 0.115142815 -0.04698274 0.24948895
0.03429206 0.08028012 -0.0820107 0.14945778 -0.016308105 -0.06783214 0.1647312 0.16561086
-0.18318628 0.16806483 1.0113827 0.15351106 -0.21073441 0.68558407 -0.25715002 -0.014889613
0.5784834 -0.13907549 -0.046822257 0.57708114 -0.0041222535 0.19864078 0.07463553 -0.024799453
-0.06219941 -0.04156433 -0.07868817 0.5130346 0.5353596 -0.5338087 0.087767534 -0.045982316
0.51778126 0.22012481 -0.117758274 -0.08149443 -0.08446279 -0.060489982 0.14862826 -0.2667182
0.04315208 0.033010274 0.56740224 -0.73143446 0.14110143 0.14183787 -0.011297315 -0.038534045
-0.38774237 0.16983843 0.0005582452 0.62717575 0.41872916 0.08967759 -0.074377134 -0.0028096102
0.18604942 -0.1608766 0.35172012 -0.15596108 -0.0016198274 0.31398803 0.5116972 -0.4284604
0.19859165 -0.7117209 0.10917132 -0.0338662 0.013908892 0.60608435 0.10305504 -0.06671947
0.057189155 -0.038019545 -0.041907296 -0.10719283 -0.28640148 0.2600332 0.2747194 0.06954873
-0.4405916 -0.121391274 -0.05466586 -0.18802325 -0.20751181 0.017217845 0.098018356 -0.16873583
-0.18805002 -0.017206514 -0.10585715 -0.124862365 0.77222997 0.072796956 -0.24326396 -0.38587338
-0.7742937 -0.14459524 0.41761532 0.0698262 0.12239864 -0.13423458 -0.20658876 -0.07256781
-1.0092683 0.09898596 -0.19696365 -0.21787111 -0.70473087 -0.039117504 0.12707683 -0.13858117
0.20543216 0.09259211 -0.344446 -0.1954023 -0.39427736 0.004506543 -0.26358902 -0.19961579
-0.48665112 -0.33468375 0.06095235 0.14487731 0.035401504 -0.12392406 -0.029349511 -0.096646346
0.06234072 -0.15001859 -0.09087425 -0.25956282 0.1180835 -0.10402612 -0.3504179 -0.44699398
0.28132161 0.10356292 -0.8889503 -0.10242582 0.007041899 -0.57108027 0.22528502 -0.09450786
-0.38670245 -0.11209325 0.1467158 -0.6064988 -0.056612562 0.033180766 -0.016030068 0.025865229
0.07205857 0.12864712 0.08727405 -0.35244194 -0.46160525 0.66157335 -0.12938923 0.23979692
-0.24480787 0.10067408 0.027999654 0.20890525 0.17200068 0.04407081 -0.0653757 0.28480116
0.12881505 -0.061738525 -0.3822485 0.8035035 -0.14357482 0.10304088 0.11521022 0.20359725
0.017631246 -0.31240684 0.0041705943 -0.31536996 -0.36374542 0.008212396 0.1633945 0.115399316
0.062749766 -0.123472586 -0.539435 0.049619857 -0.085510194 -0.40388006 -0.18642327 0.073334575
-0.06526088 0.8570834 -0.16781265 -0.17970523 0.030526096 -0.5008867 -0.022202164 0.04442369
0.26377898 0.0003105072 -0.03593449 -0.08980336 -0.058483988 -0.23963737 -0.09822556 0.014725795

model_3/angle/MatMul f4 [6, 128]
00000000: 9115 5c3e 4dbf 443f d181 713f 0026 23be
00000010: f070 d23e 023d 82bf 8407 00bf 0e34 15bd
00000020: de07 223f 98ea 583f 85be 91be 7f4e a1bc
00000030: 8cf7 21bf a5ee 45bf b9e8 1e3d b8da dcbc
00000040: eb3f 42bf e1fc 4d3f 9199 23be a155 3f3f
00000050: 7e9c 723f ce05 b13e f1ad 183f 33f8 4dbf
00000060: 1115 5cbf 032e 913f 6ba5 513f e43c 58bf
00000070: c3f3 9abd 7a24 40bf cdc0 ecbe c5fb 1fbf
00000080: 14cc 3abf 7ee7 d63d 2121 563e 383e 58bf
00000090: 864a 04bf b843 0fbf 093c 26bf 1cbd 35bf
000000a0: c9d0 993f 7c8d c53d cb98 83bf 3bbf 863f
000000b0: 2bc7 4abf a22b 9e3f f7b0 14bf 578f 1fbf
000000c0: 69a0 643f 306d 2f3f 7b94 4e3f 0273 433f
000000d0: 145b aebf 6e26 67bf 4f36 fcbd 8d56 5abf
000000e0: 5c22 f7be baf4 563f 6050 503f e361 5b3f
000000f0: 3b01 f33e e68a 6c3f 6e76 2b3f d3b5 243f
00000100: e764 5cbf 7fce bdbf b861 453f daef a23f
00000110: 5129 3d3f 2e22 533e d8ac 863f 673a 6f3f
00000120: 5eca ee3e 86a9 5bbf d5cb 85bf 7772 713f
00000130: e5ac a23f 1519 5bbf 7dfc 653f 1e67 563f
00000140: b28c 1c3f 7cc1 6b3f 6ab2 263f ad36 f8be
00000150: c9a7 40bf 4149 84bf 6e04 993f df90 e53d
00000160: 794d 55bf d56c 363f 6406 303f 7181 603f
00000170: d617 9d3e 5c9a 413f bd68 4c3e bdc6 c3bd
00000180: 073f 523f e34a 9b3e 5bcb 37bf 67ee 1ebf
00000190: 54e5 043f ed29 4cbf 031f 41bf 87fd 6fbd
000001a0: 5a27 bcbe 0153 01bf 0e28 71bf 8d04 793f
000001b0: eccd 0e3f 7d5a 403f 7c44 363f e1a6 803d
000001c0: 8204 2c3f bf40 b5be e51d 183f 08af a0bf
000001d0: c201 133f 8ab3 17bf 55f6 31bf 4510 283d
000001e0: 756c f3be f3f2 093f a5c2 43bf 1b3c 4c3f
000001f0: 8246 79bf 9e3e 0f3e 2311 4c3f abdb 713f
00000200: f33d bfbe 461d 57be ae5b b5be 3698 0b3e
00000210: 06d8 25bd b6ad 593f e152 b6bc 850e ccbe
00000220: 6239 e03d d0b8 12bf 4098 2f40 fa37 063e
00000230: e525 223f 4c6a 443f 5ad2 aa3e d2c8 363e
00000240: 5f84 1a3f 1f18 e83c ddba 8d3d e83b 543f
00000250: bcd7 babf 06da 18bf 9645 70be 1ee7 773f
00000260: fe6f 763f 5efb 093f 9cc0 1b3f 60c6 863e
00000270: 135d cabc 742c 123f e237 90bd aa30 b83e
00000280: 5e18 86be da52 c8bc de5e ad3d 55c5 1c3f
00000290: c228 253f 6532 213e 2a0f 4c3f 71f7 693f
000002a0: 7f5b bfbf 051e 083e 8dc3 15be 6dc8 9dbf
000002b0: 7b4d 703f 3dd3 aebf 451c 8e3e 8b87 393e
000002c0: 97bb 35bd 97d4 9abd 9586 b03e ca1c 3fbe
000002d0: bdc8 113f 6fda 743f 2109 113f 6201 f2bc
000002e0: 8f75 173f 8c81 93bf 0ec5 8c3e 70b8 f23e
000002f0: 4b35 2ebf ad62 573f 6016 debe f7f7 2f3f
00000300: f223 863f e63f 903e daac 3dbf 47c9 bcbf
00000310: a431 603e bdfd 93bb 64c7 12bf 1465 d8be
00000320: dbc7 4b3f 9336 aa3e 3be8 0b3f 77a3 a8be
00000330: 8532 053f a071 893f 473d 4c3f 37d6 233f
00000340: 2219 2f3f eed3 0c3f a004 8a3f d118 16bd
00000350: 736a 8a3e 2608 3d3f 0d7a 54bf fafd 24be
00000360: 212c 133f 86ec e53e 9042 523f 65b9 d8be
00000370: fd4b 72bf 8875 8ebe ae3d e73e 9169 0d3e
00000380: ad6a 3d3d 04d6 a3be 2d23 273f e2d4 153f
00000390: 4856 9ebe 9f71 513f 30e9 383f e773 d53d
000003a0: a3f8 eabe 2035 3d3f 07d1 443f 2d1c 2d3e
000003b0: a4ac 92bf 289e ffbd ae20 513f e9a8 c9be
000003c0: ebdd 0e3f 5d6c 663f 724a 0ebe 3887 163d
000003d0: e82c f1be 509b a03e 438a 4b3f 6658 a1be
000003e0: c37d 8cbf 417f fe3b 7df0 1f3e 6c16 403f
000003f0: 39a9 043f b3a3 063f 462f b1be 2835 3d3f
0.21492602 0.768544 0.9433871 -0.15932465 0.4110179 -1.0174868 -0.5001147 -0.036426596
0.63293254 0.8473296 -0.28465667 -0.01969075 -0.6326835 -0.7731727 0.03879616 -0.026959762
-0.7587878 0.8046399 -0.1597655 0.74740034 0.9477004 0.3457474 0.59640414 -0.80456847
-0.85969645 1.1342167 0.8189303 -0.8446791 -0.07566025 -0.7505566 -0.46240845 -0.62493545
-0.7296765 0.104933724 0.20911075 -0.8446994 -0.51676214 -0.55962706 -0.64935356 -0.70991683
1.2016841 0.09646127 -1.0281004 1.0527109 -0.79210156 1.2357066 -0.58082527 -0.62328094
0.89307266 0.6852598 0.80695313 0.76347363 -1.3621545 -0.90293014 -0.12315046 -0.85288316
-0.48268402 0.83967173 0.8137264 0.8569624 0.47461876 0.9239944 0.66977584 0.6433994
-0.86091465 -1.4828643 0.7710223 1.2729447 0.7389117 0.20618507 1.0521498 0.9344849
0.4663877 -0.8580555 -1.045283 0.94315284 1.2709013 -0.8558515 0.8983839 0.83751094
0.61152184 0.9209211 0.6511599 -0.48479214 -0.7525602 -1.0334855 1.1954477 0.112092726
-0.8332134 0.71259815 0.6875975 0.8769751 0.30682248 0.7562616 0.1996183 -0.09559391
0.8212742 0.30330572 -0.7179467 -0.62082523 0.51912427 -0.79751474 -0.75437945 -0.058591392
-0.36748773 -0.5051728 -0.94201744 0.9727257 0.5578296 0.75138074 0.7119825 0.062818296
0.6719438 -0.3540096 0.59420615 -1.2553415 0.5742456 -0.5925833 -0.695165 0.04103114
-0.47543684 0.53886336 -0.7646888 0.79779214 -0.9737321 0.1398873 0.7971365 0.9447581
-0.3735195 -0.2100726 -0.3542151 0.13632283 -0.04048922 0.85030687 -0.022256317 -0.39854828
0.10948445 -0.5731325 2.7436676 0.13107291 0.6333907 0.76724696 0.3336361 0.17850044
0.6035823 0.028331814 0.06920407 0.8290391 -1.4597087 -0.5970768 -0.23464045 0.9683703
0.96264637 0.5389918 0.60840774 0.26323223 -0.024702584 0.5709908 -0.07041909 0.35974628
-0.26190466 -0.02445357 0.0846536 0.61238605 0.64515316 0.1574188 0.7971064 0.9139319
-1.4949797 0.13292702 -0.14625378 -1.232679 0.93868226 -1.3658215 0.27755943 0.18118112
-0.044368353 -0.075600795 0.34477678 -0.18663326 0.5694693 0.95645803 0.56654555 -0.029541675
0.59163755 -1.152391 0.2749409 0.4740634 -0.6805007 0.8413494 -0.43376446 0.6873774
1.047972 0.2817375 -0.74091876 -1.4748925 0.21893936 -0.004516332 -0.57335496 -0.42264616
0.7960183 0.33244762 0.5465123 -0.32937214 0.5203021 1.0737801 0.79781 0.6399874
0.68397725 0.5501088 1.0782661 -0.03664476 0.2703434 0.7384056 -0.82998735 -0.1611251
0.5748921 0.44907016 0.82132816 -0.42328945 -0.946472 -0.27824044 0.45164245 0.13809802
0.046244312 -0.31999218 0.6528805 0.5852796 -0.30925202 0.81814 0.72230816 0.10422497
-0.4589282 0.7390919 0.7688145 0.1690528 -1.1458936 -0.12481338 0.8169049 -0.3938668
0.5580737 0.900091 -0.13895586 0.03675005 -0.47104573 0.31368494 0.79507846 -0.31512755
-1.097588 0.0077666347 0.15619083 0.75034213 0.51820713 0.52593535 -0.3460638 0.73909235

model_3/pose/BiasAdd/ReadVariableOp f4 [5]
00000000: 3eec ae3e 1f5f 84bf 856f 843e 48a6 a5bf
00000010: b324 8d3f
0.34164613 -1.0341529 0.25866333 -1.294137 1.1026825

model_3/direction/BiasAdd/ReadVariableOp f4 [2]
00000000: 9716 42bf 9616 423f
-0.7581572 0.75815713

model_3/dense_8/BiasAdd/ReadVariableOp f4 [128]
00000000: 482a 12bf 2aa1 0f3f bc09 ec3e 3632 73bf
00000010: 642f 7b3f 715d 49bd 2e61 b13e e5b4 923e
00000020: 3cab 7e3c 780b 62bf 19d8 0040 c667 66bf
00000030: e459 f63e 8a5c 883e 6208 2cbf d9e0 41bf
00000040: 5f2b 88bb 07b9 433f cc54 033f e9a4 b43f
00000050: bf52 1e3f cf16 d13d fafa df3a 2769 aa3e
00000060: 2814 913e 671d 323f e79f b13f 75ad 82bf
00000070: 12e4 75bf 6025 3cbd c605 ff3d e3a2 1dbf
00000080: 733d c2bd 43df 73bd 6125 173e d010 343d
00000090: 16b1 163e f880 8b3e 0a55 e4be b6cf 663e
000000a0: 48d4 0c3f 938c 88bf d18d adbe a890 b6be
000000b0: 864c 14bf 361b 293f e6ce 66bd 9da1 77be
000000c0: 5e8f a53e 29df 9c3e be7d 4a3f 74e2 153f
000000d0: 2c76 03be 71b3 283e 79df f1be 2a1d 39bf
000000e0: ae39 c1bd 6512 1c3f 1b37 5b3f eb5c 843f
000000f0: 554d e83e 1825 b93f a94c 8b3e 9ee7 513f
00000100: 2858 edbe ea87 32be c070 fa3d f28c 0f3f
00000110: 32d3 123e 5e3d 613e 31f9 eb3c fb1e 8abd
00000120: 2dd9 a53e 387d 80bf cf4a 383d 544a 893e
00000130: 171e e23e 62c2 423b e2b6 b33f 5f25 2a3f
00000140: e95c bc3f 67dc b93f 7a60 b83e 60eb ba3e
00000150: 41df f2be 18e3 bebc 4433 debb f552 28be
00000160: 8455 70bd e566 fa3e 843e b33f 6cc7 64bf
00000170: e907 df3e eebb cf3e e5e0 953c 201c 783e
00000180: 5c12 2b3f 7758 513e f915 523d 6a62 373e
00000190: c5dc ee3d 33f6 483d a65f 343e 8517 81bd
000001a0: fbac 933f e89b cdbe 2d7b b7bd 8fec 353f
000001b0: cdea ee3e a998 203f f3a6 b83f bd93 c53e
000001c0: f90a 61be 3739 033f 957c 903e 9e08 71bf
000001d0: 1853 953e 6c9f 66bd 34c3 373e 7d71 133f
000001e0: a70a 003f 3c8e e4bd e36a 04be 57fa af3f
000001f0: 1bd5 b5bd 7ade 5fbf 6d0c 0e3e ef51 ac3f
-0.57095766 0.5610529 0.46101177 -0.9499849 0.9811919 -0.04916138 0.34644455 0.28653637
0.015543755 -0.8829875 2.0131896 -0.90002096 0.48115456 0.26633102 -0.6720029 -0.75733715
-0.004155561 0.76454204 0.51301265 1.4112827 0.6184501 0.102094285 0.0017088347 0.3328335
0.2833569 0.69576114 1.3876923 -1.0209185 -0.9605113 -0.04593408 0.12452273 -0.6157667
-0.09484377 -0.05953909 0.14760353 0.043961346 0.1471599 0.27246833 -0.4459613 0.22540173
0.55011415 -1.06679 -0.3389726 -0.3565724 -0.57929265 0.66057146 -0.056349657 -0.24182744
0.32335943 0.30639008 0.7909812 0.58548665 -0.12838048 0.16474701 -0.4724081 -0.72310126
-0.0943483 0.6096557 0.8563096 1.0340856 0.453715 1.4464445 0.27206925 0.81994045
-0.4635632 -0.1743466 0.122285366 0.5607444 0.14338377 0.21996066 0.028805347 -0.0674419
0.32392254 -1.0038214 0.044993218 0.2681452 0.44163582 0.0029717912 1.4040186 0.66463274
1.4715854 1.4520386 0.36011106 0.36507702 -0.47435954 -0.023301646 -0.0067810137 -0.16437896
-0.058675304 0.48906627 1.4003453 -0.89366794 0.43560722 0.40573066 0.018295715 0.24229479
0.6682489 0.20443903 0.051290486 0.17908636 0.11663202 0.04906292 0.17614612 -0.06303314
1.1537164 -0.4015801 -0.08959041 0.71064085 0.46663514 0.6273294 1.4425949 0.38589278
-0.21976842 0.5125918 0.2822005 -0.94153774 0.29164958 -0.05630438 0.17945558 0.57595044
0.50016254 -0.111599416 -0.12931399 1.3748273 -0.08878537 -0.8744885 0.13871928 1.3462504

model_3/dense_7/BiasAdd/ReadVariableOp f4 [128]
00000000: 4518 dcbd 130f 593e 635c c5bc 9285 79be
00000010: 5152 be3c a707 033f 5989 3abd 0714 6a3d
00000020: e47a 863d 75a1 983e 6763 1bbc 3393 0e3e
00000030: 2e3f 263d 2bc0 bb3e f2ba 393d e7af 733b
00000040: da56 77be 4406 b93e 31ab 983e f307 be3d
00000050: cb75 08bc 952f 39be 2fc2 14be e509 f33b
00000060: 0e40 73bd 8914 2cbe a804 2f3d ef49 f23c
00000070: 6e9b 36be b9c9 37be 9f5e ef3d 7a2c 81bd
00000080: c999 5c3e b21e e83c 2785 b4bd 3a06 a33d
00000090: b494 02be 6b56 9d3e a019 1cbe 2b85 a03d
000000a0: 0aca b4ba ae9f 533d e3d8 653e 7d33 5c3e
000000b0: 7948 463d cd8e 1b3c 66a7 383e cd8c f4bd
000000c0: fd5f 2e3d b73f 17be c28d 8abe de57 123c
000000d0: 8432 163d 62e7 b53d 31b7 8c3d e702 16be
000000e0: 49ad 42be 4548 853b 2e1d f6bc 6447 21be
000000f0: 63ac 60bd bf7d 34bd 5f8f 8cbe 7bbf 14bd
00000100: 9f20 21be a6f5 19be b62b 60be e1ae c1bd
00000110: a7ab 373d c8bf 5c3d 63af 15be 21d0 e33d
00000120: eb9b 45bc 167b 7d3e 0c69 f7bc f76c 24be
00000130: df46 b4bd 13c1 1e3e ba69 0fbe 98e1 8f3e
00000140: 06aa 0dbe d8a1 d1be 4e3f 1c3c 0845 0abe
00000150: b387 aab9 32d5 673e e2a8 83bd 834b c53d
00000160: 0157 543e 75c8 74bc d5b5 ccbd 1c9e 053e
00000170: 6344 e0bd a9d4 213e eaac 7d3e 1004 bd3e
00000180: 528c 5abe 7135 26bd 6127 a53e 4c4b 0fbd
00000190: 3c95 2fbb 802c 963e 47f9 ad3d f9d6 e63b
000001a0: 9852 51bd 6e08 903e 0bf3 89bd 1afb c33d
000001b0: 8184 8d3b 3f0e 983e 59a0 ae3e 84e6 ad3e
000001c0: be5e 2abe dfda 193d 1ca2 57bd b9f8 da3d
000001d0: b22a 433e 8d9c 9dbd 8220 de3d f111 2cbe
000001e0: 2024 a23d 40a4 673e 8f0b 523d d0ff 9d3e
000001f0: 7f4e d03d a0dc d8ba 1ad2 4bbe 48af 6e3e
-0.107468165 0.21197157 -0.024091905 -0.2436736 0.02323261 0.5118355 -0.04554114 0.057148006
0.06566408 0.29810682 -0.009484149 0.1392334 0.040587597 0.3667005 0.0453443 0.0037183703
-0.24154225 0.36137593 0.2981811 0.0927886 -0.008328865 -0.18084557 -0.145272 0.007416951
-0.05938726 -0.16804709 0.04272905 0.02957627 -0.17832729 -0.17948045 0.116879694 -0.06307311
0.2154304 0.02833495 -0.08814459 0.07960172 -0.12752038 0.30729994 -0.1524415 0.078379
-0.0013793122 0.051665954 0.22446017 0.21504016 0.04840896 0.009494496 0.18032607 -0.11940918
0.04257201 -0.14770399 -0.27061278 0.008932082 0.03666927 0.088820234 0.068708785 -0.14649545
-0.19011416 0.004067453 -0.03004321 -0.1574989 -0.0548519 -0.044065233 -0.27453133 -0.036315423
-0.157351 -0.15035114 -0.21891674 -0.09457184 0.044841435 0.053893834 -0.14617686 0.11123682
-0.0120610995 0.24753985 -0.030201457 -0.16057192 -0.0880258 0.1550334 -0.14005175 0.28101802
-0.1383439 -0.4094379 0.009536577 -0.13502896 -0.0003252603 0.22639921 -0.06428696 0.09633543
0.20736314 -0.014940371 -0.09995619 0.13048595 -0.10950544 0.1580378 0.24772993 0.36917162
-0.2134259 -0.04057831 0.32256606 -0.034983918 -0.0026791831 0.29330826 0.084948115 0.0070446697
-0.05110416 0.2813143 -0.0673581 0.09569378 0.004318774 0.2969837 0.3410671 0.33964932
-0.16637704 0.037562247 -0.052644834 0.10691971 0.19059256 -0.07695875 0.10846044 -0.16803719
0.079170465 0.2262125 0.051280554 0.30859232 0.10171222 -0.0016545244 -0.19904366 0.23309052

model_3/angle/BiasAdd/ReadVariableOp f4 [6]
00000000: b86c 453f ea2d 293f 48b3 693e d298 c03e
00000010: 671d cfbd 1844 1cbd
0.77119017 0.66085684 0.22822297 0.37616593 -0.1011303 -0.038150877

model_3/dense_6/BiasAdd/ReadVariableOp f4 [128]
00000000: 0000 0000 0000 0000 d49f fe3b 223c 3fbd
00000010: 0000 0000 9527 93bd 33c5 c4bb bcc1 16bd
00000020: 0000 0000 36c5 b4bb 0000 0000 0413 bcbc
00000030: 09dd 1cbc 82ce afbc 8259 b13c f16c 5bbc
00000040: 7d6a a6bc daf7 9cbd f3c6 c4bb 6879 d8bc
00000050: 0000 0000 fcaa 3cbc f3d1 a2bd 5102 7bbc
00000060: 4619 7a3b 0000 0000 4bba 4ebd 1ed9 803b
00000070: f605 27bc 0000 0000 d96e 42bc 38d2 1cbd
00000080: 0000 0000 db2c 843d 1d50 24bc 9eb4 7abc
00000090: 0000 0000 0000 0000 0000 0000 0000 0000
000000a0: 918e 1bbd 0000 0000 7b82 d3bc 0000 0000
000000b0: b6d6 11bd bfcd 213d 0000 0000 0000 0000
000000c0: 69f9 92bc 3bce 4dbd 0000 0000 0000 0000
000000d0: 0000 0000 0000 0000 a835 16bd 0000 0000
000000e0: 0d29 b3bd 0f68 ecbb 975a 23bc 1ebf dcbd
000000f0: 1a3a 98bd 22ea b5bd 0000 0000 8e62 a73b
00000100: 4863 43bc f825 863c 0000 0000 5559 45bb
00000110: 0000 0000 0000 0000 407a fabb 39e7 69bd
00000120: 0f7c 85bc a758 b4bc 0000 0000 0000 0000
00000130: 0000 0000 8295 8cbb 39df 67bd aa74 dbbc
00000140: 9275 60bc 4d95 22bd 0000 0000 8e19 503c
00000150: 2f06 adbc 1d9f 8f3a 0000 0000 c299 57bd
00000160: fcfe 3dbd 977d cbbb b5b9 34bc 0000 0000
00000170: 0000 0000 a0b3 d3bc ee62 0bbd 0000 0000
00000180: 899c f2bc 2e4a fdbc 0000 0000 4d5c 11bd
00000190: bf94 f23a 805b 7ebc 19ac 60bd 0000 0000
000001a0: 1cee f1bb 0000 0000 f0a7 bfbd 0000 0000
000001b0: a97c b9bc 5290 8fbc 0000 0000 0000 0000
000001c0: ab0a b5bd 0000 0000 0000 0000 51c8 7dbd
000001d0: 0000 0000 5fc6 c4bb 5c11 92bd 0000 0000
000001e0: 9fec 52bd 2ac5 85bc d4c6 3cbd 0000 0000
000001f0: 796a 3cbb 0000 0000 0000 0000 e657 debb
0.0 0.0 0.007770518 -0.046688206 0.0 -0.07185284 -0.0060049533 -0.036805853
0.0 -0.0055166734 0.0 -0.022958286 -0.009574183 -0.021460775 0.021649126 -0.013392673
-0.02031445 -0.076644614 -0.006005162 -0.026425079 0.0 -0.011515375 -0.07950201 -0.0153203765
0.0038162037 0.0 -0.05047063 0.0039321324 -0.010194292 0.0 -0.011867248 -0.038286418
0.0 0.06453868 -0.010028866 -0.015301852 0.0 0.0 0.0 0.0
-0.03797776 0.0 -0.025819054 0.0 -0.035605155 0.039502855 0.0 0.0
-0.017941194 -0.050245505 0.0 0.0 0.0 0.0 -0.036672264 0.0
-0.08748064 -0.007214553 -0.009970329 -0.1077864 -0.07432957 -0.08882548 0.0 0.005108184
-0.011925526 0.016375527 0.0 -0.003011306 0.0 0.0 -0.007643968 -0.057105277
-0.016294507 -0.022014929 0.0 0.0 0.0 -0.0042902837 -0.056609366 -0.026789028
-0.013699906 -0.039693166 0.0 0.012701405 -0.021121113 0.0010957454 0.0 -0.05263687
-0.04638575 -0.00621004 -0.011030604 0.0 0.0 -0.025842488 -0.034029894 0.0
-0.029615657 -0.03091916 0.0 -0.035488416 0.0018507465 -0.015524745 -0.054851625 0.0
-0.007383121 0.0 -0.093582034 0.0 -0.02264245 -0.017524872 0.0 0.0
-0.088399254 0.0 0.0 -0.061958615 0.0 -0.006005093 -0.07132217 0.0
-0.05149519 -0.016329367 -0.046088055 0.0 -0.0028749986 0.0 0.0 -0.0067853807

model_3/dense_6/MatMul i1 [128, 51] scale=0.0043026125 zero_point=0
00000000: 0701 e216 0418 fb29 fbe2 2204 eddf 14da
00000010: ecff e6e1 e7de 1013 e70a 0e19 d70d d9d6
00000020: ee17 1112 0af6 f000 fe27 f013 d7ff 2ae3
00000030: 12f5 d7d9 e003 2425 ff26 01fc 0504 221a
00000040: e91c 131a fae5 ecf2 f9dc f016 f3f9 e2e5
00000050: 08d7 2013 efdc 0b2a 0f05 2402 e0e1 e117
00000060: ec1c e41a ecf7 8208 1d9c 2e12 9101 b09c
00000070: 2ccf 880b e3c1 f0d7 dc2b d009 092e cd54
00000080: 1713 0bda fd24 3e06 071b 090c 103f 17e7
00000090: 020b 0216 150d f01f 00c4 3c2e f00d 0be6
000000a0: ffe4 f5e8 03f1 18bf 324b 1431 e53c ce3f
000000b0: 49d7 0d26 9f34 ed9b 2b25 edff dee6 cc01
000000c0: faf8 0fdb bf0a e80b 18e3 e72a fc05 f3e3
000000d0: 1927 db08 0ce9 fade 2715 f0eb f3ff 02ed
000000e0: fadc 0512 f1df 290c 11e6 25e7 13f5 d7db
000000f0: fdd7 2413 271d d921 f9df edda df1a faeb
0.030118287 0.0043026125 -0.12907837 0.09465747 0.01721045 0.1032627 -0.021513063 0.17640711
-0.021513063 -0.12907837 0.14628883 0.01721045 -0.08174964 -0.1419862 0.086052254 -0.16349928
-0.086052254 -0.0043026125 -0.11186793 -0.133381 -0.10756531 -0.14628883 0.0688418 0.08174964
-0.10756531 0.043026127 0.060236573 0.10756531 -0.17640711 0.055933964 -0.16780189 -0.18070972
-0.07744703 0.09896009 0.07314441 0.07744703 0.043026127 -0.043026127 -0.0688418 0.0
-0.008605225 0.16780189 -0.0688418 0.08174964 -0.17640711 -0.0043026125 0.18070972 -0.12477576
0.07744703 -0.047328737 -0.17640711 -0.16780189 -0.1376836 0.0129078375 0.15489405 0.15919666
-0.0043026125 0.16349928 0.0043026125 -0.01721045 0.021513063 0.01721045 0.14628883 0.11186793
-0.09896009 0.12047315 0.08174964 0.11186793 -0.025815675 -0.11617054 -0.086052254 -0.060236573
-0.030118287 -0.15489405 -0.0688418 0.09465747 -0.055933964 -0.030118287 -0.12907837 -0.11617054
0.0344209 -0.17640711 0.1376836 0.08174964 -0.07314441 -0.15489405 0.047328737 0.18070972
0.06453919 0.021513063 0.15489405 0.008605225 -0.1376836 -0.133381 -0.133381 0.09896009
-0.086052254 0.12047315 -0.12047315 0.11186793 -0.086052254 -0.038723513 -0.54212916 0.0344209
0.12477576 -0.43026125 0.19792017 0.07744703 -0.47759 0.0043026125 -0.34420902 -0.43026125
0.18931495 -0.210828 -0.5163135 0.047328737 -0.12477576 -0.27106458 -0.0688418 -0.17640711
-0.15489405 0.18501234 -0.2065254 0.038723513 0.038723513 0.19792017 -0.21943323 0.36141944
0.09896009 0.08174964 0.047328737 -0.16349928 -0.0129078375 0.15489405 0.266762 0.025815675
0.030118287 0.11617054 0.038723513 0.05163135 0.0688418 0.27106458 0.09896009 -0.10756531
0.008605225 0.047328737 0.008605225 0.09465747 0.09035486 0.055933964 -0.0688418 0.133381
0.0 -0.25815675 0.25815675 0.19792017 -0.0688418 0.055933964 0.047328737 -0.11186793
-0.0043026125 -0.12047315 -0.047328737 -0.1032627 0.0129078375 -0.06453919 0.1032627 -0.27966982
0.21513063 0.32269594 0.086052254 0.210828 -0.11617054 0.25815675 -0.21513063 0.27106458
0.3140907 -0.17640711 0.055933964 0.16349928 -0.41735342 0.22373585 -0.08174964 -0.43456388
0.18501234 0.15919666 -0.08174964 -0.0043026125 -0.14628883 -0.11186793 -0.22373585 0.0043026125
-0.025815675 -0.0344209 0.06453919 -0.15919666 -0.27966982 0.043026127 -0.1032627 0.047328737
0.1032627 -0.12477576 -0.10756531 0.18070972 -0.01721045 0.021513063 -0.055933964 -0.12477576
0.10756531 0.16780189 -0.15919666 0.0344209 0.05163135 -0.09896009 -0.025815675 -0.14628883
0.16780189 0.09035486 -0.0688418 -0.09035486 -0.055933964 -0.0043026125 0.008605225 -0.08174964
-0.025815675 -0.15489405 0.021513063 0.07744703 -0.06453919 -0.1419862 0.17640711 0.05163135
0.07314441 -0.11186793 0.15919666 -0.10756531 0.08174964 -0.047328737 -0.17640711 -0.15919666
-0.0129078375 -0.17640711 0.15489405 0.08174964 0.16780189 0.12477576 -0.16780189 0.1419862
-0.030118287 -0.1419862 -0.08174964 -0.16349928 -0.1419862 0.11186793 -0.025815675 -0.09035486

model_3/dense_7/MatMul i1 [128, 128] scale=0.010022361 zero_point=0
00000000: 0204 07f9 f51b 02f5 0729 0d0b 040b f6f8
00000010: 0717 0e09 070f 0d0b 0ef6 2d39 06f1 fffc
00000020: fefa 0dfa 0b0f f8f9 08f5 5cfe f601 f1ff
00000030: 2e0d f6f6 0708 1107 30fb 0135 0429 0909
00000040: 3305 fe08 0202 f3ff fc23 050e f909 faff
00000050: f80e 0528 060c 0538 f8f4 0bf2 f60d 00f9
00000060: 3908 f60d 420e 0205 fd07 1d00 00f6 fd08
00000070: 03fd fcfe fb07 080f 440c fe04 0701 f714
00000080: f9f6 d71c f6df f90d 0b00 0c35 fefa fa0c
00000090: 04d2 0a05 0404 d9f4 280e 061b 0a04 09e3
000000a0: f1c8 e5f5 0c0e f10e f0f8 12f4 0dc6 fe04
000000b0: 0315 0a0a 0e09 e60e d9fe fae7 06d9 fa33
000000c0: 12cf 0814 f3f7 fa0e 0bd1 f90e f605 2035
000000d0: f840 0836 2513 0ef8 1bff f0f4 f607 11fa
000000e0: f5cd fd0b 2cf5 16fd 0405 dcfd f1ff 0105
000000f0: d3fd 0d37 08fd eafa 070e 0f05 dafc fa3f
0.020044722 0.040089443 0.07015653 -0.07015653 -0.11024597 0.27060375 0.020044722 -0.11024597
0.07015653 0.4109168 0.13029069 0.11024597 0.040089443 0.11024597 -0.10022361 -0.08017889
0.07015653 0.2305143 0.14031306 0.090201244 0.07015653 0.15033542 0.13029069 0.11024597
0.14031306 -0.10022361 0.45100623 0.5712746 0.060134165 -0.15033542 -0.010022361 -0.040089443
-0.020044722 -0.060134165 0.13029069 -0.060134165 0.11024597 0.15033542 -0.08017889 -0.07015653
0.08017889 -0.11024597 0.9220572 -0.020044722 -0.10022361 0.010022361 -0.15033542 -0.010022361
0.4610286 0.13029069 -0.10022361 -0.10022361 0.07015653 0.08017889 0.17038013 0.07015653
0.48107332 -0.050111804 0.010022361 0.53118515 0.040089443 0.4109168 0.090201244 0.090201244
0.5111404 0.050111804 -0.020044722 0.08017889 0.020044722 0.020044722 -0.13029069 -0.010022361
-0.040089443 0.35078263 0.050111804 0.14031306 -0.07015653 0.090201244 -0.060134165 -0.010022361
-0.08017889 0.14031306 0.050111804 0.40089443 0.060134165 0.12026833 0.050111804 0.56125224
-0.08017889 -0.12026833 0.11024597 -0.14031306 -0.10022361 0.13029069 0.0 -0.07015653
0.5712746 0.08017889 -0.10022361 0.13029069 0.66147584 0.14031306 0.020044722 0.050111804
-0.030067082 0.07015653 0.29064846 0.0 0.0 -0.10022361 -0.030067082 0.08017889
0.030067082 -0.030067082 -0.040089443 -0.020044722 -0.050111804 0.07015653 0.08017889 0.15033542
0.6815205 0.12026833 -0.020044722 0.040089443 0.07015653 0.010022361 -0.090201244 0.20044722
-0.07015653 -0.10022361 -0.4109168 0.28062612 -0.10022361 -0.33073792 -0.07015653 0.13029069
0.11024597 0.0 0.12026833 0.53118515 -0.020044722 -0.060134165 -0.060134165 0.12026833
0.040089443 -0.4610286 0.10022361 0.050111804 0.040089443 0.040089443 -0.39087206 -0.12026833
0.40089443 0.14031306 0.060134165 0.27060375 0.10022361 0.040089443 0.090201244 -0.29064846
-0.15033542 -0.56125224 -0.27060375 -0.11024597 0.12026833 0.14031306 -0.15033542 0.14031306
-0.16035777 -0.08017889 0.18040249 -0.12026833 0.13029069 -0.5812969 -0.020044722 0.040089443
0.030067082 0.21046957 0.10022361 0.10022361 0.14031306 0.090201244 -0.26058137 0.14031306
-0.39087206 -0.020044722 -0.060134165 -0.25055903 0.060134165 -0.39087206 -0.060134165 0.5111404
0.18040249 -0.4910957 0.08017889 0.20044722 -0.13029069 -0.090201244 -0.060134165 0.14031306
0.11024597 -0.47105095 -0.07015653 0.14031306 -0.10022361 0.050111804 0.32071555 0.53118515
-0.08017889 0.6414311 0.08017889 0.5412075 0.37082735 0.19042486 0.14031306 -0.08017889
0.27060375 -0.010022361 -0.16035777 -0.12026833 -0.10022361 0.07015653 0.17038013 -0.060134165
-0.11024597 -0.5111404 -0.030067082 0.11024597 0.4409839 -0.11024597 0.22049195 -0.030067082
0.040089443 0.050111804 -0.36080498 -0.030067082 -0.15033542 -0.010022361 0.010022361 0.050111804
-0.45100623 -0.030067082 0.13029069 0.55122983 0.08017889 -0.030067082 -0.22049195 -0.060134165
0.07015653 0.14031306 0.15033542 0.050111804 -0.38084972 -0.040089443 -0.060134165 0.63140875

model_3/dense_8/MatMul i1 [128, 128] scale=0.015767725 zero_point=0
00000000: fc0c 392b f5fa 01fe 00fb 0ffa ddf3 0002
00000010: fd00 000d 0e08 0709 0808 faf2 050d 0117
00000020: 150a 06fd 0b06 0cfc fff4 070c f8fc f906
00000030: 02fc 2707 ec00 f500 1e00 fb0c 1a01 3c00
00000040: 0c07 21fd 1f04 11ee 2b08 3502 fafe 0f06
00000050: ea0c 052b 05f1 0341 0908 0cf9 fd0e 130a
00000060: 1ff5 f5f3 fe06 3b08 0304 ea29 00db e010
00000070: 1fd7 f304 f9f9 030f fc12 1717 fffa 0907
00000080: 1c05 1a1b 340b 252a 150c 360e 3602 1b30
00000090: 2014 0915 240d 2328 2f0c 1126 1c23 0d33
000000a0: 0a30 3926 1706 060f 291c 070f 2218 141f
000000b0: 1f2a 1a32 2916 201d 2230 2a10 1a21 182d
000000c0: 1627 232f 0f3d 222b 3f06 2412 2c0b 1f03
000000d0: 2e1f 3728 2f0b 38fa 0c24 051a 200f 0309
000000e0: 283d 0922 340d f33c 260a 250b 2100 0006
000000f0: 0835 310f 0d28 11ff 2104 0e0e 141c 290c
-0.0630709 0.18921271 0.8987603 0.6780122 -0.17344497 -0.094606355 0.015767725 -0.03153545
0.0 -0.078838624 0.23651588 -0.094606355 -0.5518704 -0.20498043 0.0 0.03153545
-0.047303177 0.0 0.0 0.20498043 0.22074816 0.1261418 0.11037408 0.14190952
0.1261418 0.1261418 -0.094606355 -0.22074816 0.078838624 0.20498043 0.015767725 0.36265767
0.33112222 0.15767725 0.094606355 -0.047303177 0.17344497 0.094606355 0.18921271 -0.0630709
-0.015767725 -0.18921271 0.11037408 0.18921271 -0.1261418 -0.0630709 -0.11037408 0.094606355
0.03153545 -0.0630709 0.6149413 0.11037408 -0.3153545 0.0 -0.17344497 0.0
0.47303176 0.0 -0.078838624 0.18921271 0.40996087 0.015767725 0.9460635 0.0
0.18921271 0.11037408 0.52033496 -0.047303177 0.48879948 0.0630709 0.26805133 -0.28381905
0.6780122 0.1261418 0.8356894 0.03153545 -0.094606355 -0.03153545 0.23651588 0.094606355
-0.34688994 0.18921271 0.078838624 0.6780122 0.078838624 -0.23651588 0.047303177 1.0249021
0.14190952 0.1261418 0.18921271 -0.11037408 -0.047303177 0.22074816 0.29958677 0.15767725
0.48879948 -0.17344497 -0.17344497 -0.20498043 -0.03153545 0.094606355 0.93029577 0.1261418
0.047303177 0.0630709 -0.34688994 0.64647675 0.0 -0.58340585 -0.5045672 0.2522836
0.48879948 -0.64647675 -0.20498043 0.0630709 -0.11037408 -0.11037408 0.047303177 0.23651588
-0.0630709 0.28381905 0.36265767 0.36265767 -0.015767725 -0.094606355 0.14190952 0.11037408
0.4414963 0.078838624 0.40996087 0.4257286 0.81992173 0.17344497 0.58340585 0.66224444
0.33112222 0.18921271 0.8514572 0.22074816 0.8514572 0.03153545 0.4257286 0.75685084
0.5045672 0.3153545 0.14190952 0.33112222 0.5676381 0.20498043 0.5518704 0.630709
0.7410831 0.18921271 0.26805133 0.59917355 0.4414963 0.5518704 0.20498043 0.804154
0.15767725 0.75685084 0.8987603 0.59917355 0.36265767 0.094606355 0.094606355 0.23651588
0.64647675 0.4414963 0.11037408 0.23651588 0.53610265 0.37842542 0.3153545 0.48879948
0.48879948 0.66224444 0.40996087 0.7883863 0.64647675 0.34688994 0.5045672 0.45726404
0.53610265 0.75685084 0.66224444 0.2522836 0.40996087 0.52033496 0.37842542 0.70954764
0.34688994 0.6149413 0.5518704 0.7410831 0.23651588 0.9618312 0.53610265 0.6780122
0.99336666 0.094606355 0.5676381 0.28381905 0.6937799 0.17344497 0.48879948 0.047303177
0.72531533 0.48879948 0.8672249 0.630709 0.7410831 0.17344497 0.8829926 -0.094606355
0.18921271 0.5676381 0.078838624 0.40996087 0.5045672 0.23651588 0.047303177 0.14190952
0.630709 0.9618312 0.14190952 0.53610265 0.81992173 0.20498043 -0.20498043 0.9460635
0.59917355 0.15767725 0.58340585 0.17344497 0.52033496 0.0 0.0 0.094606355
0.1261418 0.8356894 0.77261853 0.23651588 0.20498043 0.630709 0.26805133 -0.015767725
0.52033496 0.0630709 0.22074816 0.22074816 0.3153545 0.4414963 0.64647675 0.18921271
