Model/Trainer/model/pose_classifier.tflite (tflite, 78696 bytes, 10 tensors)

model_2/pose/MatMul f4 [5, 64]
000000 7c 3b 12 3d 16 fb 58 bd 19 23 79 3e 02 30 81 be
       0.03570126 -0.05297383 0.24329795 -0.2523194
000010 c4 b6 ad 3e fc 6f 88 bc d0 66 a6 be c5 8a 5a 3e
       0.33928502 -0.01665496 -0.32500315 0.21341999
000020 e3 d3 c4 be 94 17 a6 3e b1 1a 62 3e 97 e6 9c be
       -0.38442907 0.32439864 0.22080494 -0.30644676
000030 20 2e ba 3e 42 8d 9b be ac df ad 3e f2 75 aa be
       0.36363316 -0.3038121 0.3395971 -0.3329311
000040 82 fa a5 be 47 78 26 3e bc 4a aa 3e 0b 17 ac be
       -0.32417685 0.1625682 0.33260143 -0.3361133
000050 6b b0 92 be 1e d7 90 3e e5 26 80 3e e5 c4 a4 be
       -0.2865022 0.2828912 0.25029674 -0.3218147
000060 15 24 8d 3e c7 ca 92 be db cb 8e 3e cc 2b 50 3e
       0.2756659 -0.28670332 0.27889904 0.20329207
000070 b3 75 90 be f0 3c c1 3e 83 43 d6 bd 01 61 af 3e
       -0.28214797 0.37741804 -0.104620956 0.34253696
000080 e3 d5 75 be 3c 0e a7 3c 5f 7b 0e bc b1 d2 5c 3e
       -0.24007373 0.02039253 -0.008696406 0.21564747
000090 87 00 47 3e 45 fa 36 bd b2 09 17 3e 4e 14 ab be
       0.19433795 -0.04467227 0.14749792 -0.3341393
0000a0 95 9e ab be dd 94 9e be 48 e6 c4 be e4 53 d2 3d
       -0.33519426 -0.3097295 -0.3845694 0.10269907
0000b0 1e d6 da bd df fa 17 bf 32 4c 07 bf 65 a1 eb be
       -0.10685371 -0.59367174 -0.5285064 -0.46021572
0000c0 19 a7 8a be 96 37 59 3d 59 d1 93 3e 9a 06 73 be
       -0.2708061 0.053031527 0.28870657 -0.23732987
0000d0 f3 ec af be e3 96 9b 3e d7 3e 54 be 1c ba 8e 3e
       -0.34360465 0.30388555 -0.20727096 0.27876365
0000e0 70 12 25 3e 72 79 58 3e 59 49 92 be c5 7b 04 be
       0.16120315 0.21140078 -0.28571585 -0.1293784
0000f0 77 6c 81 be 1c b3 69 3d ca 38 83 3e 97 dc 9b be
       -0.25278065 0.057055578 0.25629264 -0.30441734
000100 20 1a b6 be 1b 52 70 3e 04 b5 51 3e 38 64 d5 be
       -0.35566807 0.23468821 0.20479208 -0.41678023
000110 49 ab 94 3d 68 bf 89 bd 6a 73 ae 3e 8a 71 2e 3e
       0.072592326 -0.06725961 0.3407243 0.17035499
000120 54 8a 03 bc c7 79 b3 3d 6a bb 35 bd f6 9c b5 be
       -0.008028585 0.087634616 -0.044368185 -0.35471314
000130 d3 34 c8 3d d1 00 f7 bd 40 50 24 be e3 df 1f 3e
       0.097757004 -0.120607026 -0.16046238 0.1561275
000140 77 44 de bd 5b 68 95 bc e6 ce 8f 3e e9 ac 9e bd
       -0.108529024 -0.018238237 0.28087538 -0.07747824
000150 c2 9a 93 be 45 60 01 bd 92 ce ae be 99 b2 05 3e
       -0.28829008 -0.03158595 -0.34141976 0.13056411
000160 0b 0f ea bc 1b 39 37 be f3 03 97 3d a2 67 fd 3d
       -0.028571626 -0.17892878 0.073738 0.12373282
000170 f1 45 85 be 53 78 86 be af ae e6 3d 26 ed e8 bd
       -0.26029924 -0.26263675 0.11263787 -0.113733575
000180 eb a4 a5 3e 7b 52 63 be 96 95 32 3e 27 b3 83 be
       0.32352385 -0.22199433 0.17439875 -0.2572262
000190 81 b4 f5 bd a5 63 59 be f8 80 98 be 40 3d 69 3e
       -0.11997319 -0.21229418 -0.29785895 0.22777271
0001a0 ba fe be be d3 f9 37 3e be 49 31 3e 15 8b 0b be
       -0.37303716 0.17966394 0.17313287 -0.13627274
0001b0 29 ca 2e 3d d9 a4 a1 be d8 ad 62 3e bc 05 a2 3d
       0.042673264 -0.3157108 0.22136629 0.0791125
0001c0 04 05 31 bd b0 7d 68 3e ac 8f 03 be 47 fa 4b bc
       -0.043217674 0.22704196 -0.12847775 -0.0124498075
0001d0 0d 91 15 be 45 ba 07 3e 6c b2 54 3e 59 16 a5 3e
       -0.14606114 0.1325465 0.20771188 0.32243612
0001e0 a3 7c 0f 3e 39 38 be be ef 17 13 be 92 d4 a5 3e
       0.14012389 -0.3715227 -0.14364599 0.3238874
0001f0 04 3d ea bd cc 04 d4 3d 80 11 d9 bd 10 d6 bf be
       -0.11437419 0.103524774 -0.10599041 -0.37468004
000200 6c e4 9e be e2 3d 87 be ff 71 af be d0 cf df bd
       -0.31033647 -0.264144 -0.3426666 -0.10928309
000210 7a 68 d9 be 3b 63 74 3e 2c c4 cc bd 41 ae 32 be
       -0.42462522 0.23865978 -0.09998354 -0.17449285
000220 60 bc 4e be 1c 57 d0 be 50 58 31 3e 52 93 66 3d
       -0.20189047 -0.4069146 0.17318845 0.05629284
000230 fb 0f 75 be 30 0f 5a be 99 07 96 bd 6e 23 24 3e
       -0.23931877 -0.21294856 -0.07325668 0.1602914
000240 6e 4e 87 3e 46 4b 66 3e c5 fb ac bd 56 f1 b6 3e
       0.26427025 0.22489652 -0.08446459 0.35731
000250 d8 ab 36 3e 75 c8 06 be 4f 93 0c 3e 4a 6f 74 bd
       0.1783899 -0.13162406 0.13728069 -0.059676446
000260 69 04 c9 bd ad 2b b8 3e 90 2f 55 3e 64 28 2f be
       -0.09815294 0.35970822 0.20818925 -0.17105252
000270 b1 8f 73 bd 91 33 9a be e0 90 e9 bc 57 aa b3 be
       -0.059463207 -0.30117467 -0.028511465 -0.35090896
000280 79 42 50 3c 5a ba c8 be 57 14 39 3e 82 1f 11 be
       0.012711161 -0.39204675 0.18074165 -0.14172176
000290 f0 45 85 3d bb c0 fd 3d 50 00 10 3e d3 f6 ab be
       0.0650748 0.12390276 0.14062619 -0.3358675
0002a0 38 b8 11 be 14 21 95 3e 50 70 c2 bd 2c 73 67 3e
       -0.1423043 0.291268 -0.09494078 0.22602528
0002b0 88 35 63 be aa 8d 92 3e 2b fe 4d 3e 53 45 37 3e
       -0.2218839 0.28623706 0.20116489 0.17897539
0002c0 51 40 cb be a8 44 7a be aa f0 a2 3b d8 e0 9f be
       -0.39697507 -0.24440253 0.004972537 -0.3122623
0002d0 9c 67 43 3e 75 11 d1 be b6 d5 a1 bd bc e6 24 be
       0.19082493 -0.4083363 -0.0790209 -0.16103643
0002e0 b9 33 a2 be 31 32 22 be 8b 5a 65 3e 71 b3 81 bc
       -0.31680086 -0.15839459 0.2239782 -0.015832635
0002f0 55 42 0b 3e 02 61 a5 be 7f 20 25 3e 29 69 a7 bd
       0.13599522 -0.32300574 0.16125678 -0.081743546
000300 0a 44 b9 3e 58 9a 57 3e 76 4f 64 3e b6 57 cc 3e
       0.36184722 0.21054971 0.22295937 0.39910668
000310 a8 e3 dc bd 17 19 69 be d5 b9 a7 3d 84 19 dc be
       -0.107856095 -0.22763477 0.081897415 -0.42988217
000320 e5 18 bb 3e 34 5b a5 3e cf b5 a4 be 4e dd d6 bd
       0.3654243 0.32296145 -0.3216996 -0.10491429
000330 5a 40 1c be 54 6c 58 bd 7a 4f e9 bd 0a de cb be
       -0.15258923 -0.052837685 -0.11392112 -0.3981784
000340 39 24 8e 3e f1 b5 3d be 8f 71 79 be 65 10 22 be
       0.2776201 -0.18526436 -0.24359725 -0.15826567
000350 5c 62 1b 3e b8 32 9e 3e 0a b9 a0 be 06 26 a2 bb
       0.1517424 0.3089807 -0.31391174 -0.0049483804
000360 7c 9e 75 3e 5b 0a ee ba ed 07 55 3e 80 15 4e 3d
       0.23986238 -0.0018161045 0.20803805 0.050313473
000370 51 c5 ac 3e c0 82 78 be 6e 51 00 bf 66 4f 8e bd
       0.3374429 -0.24268627 -0.5012425 -0.06948738
000380 07 01 92 bd 2a fd 90 3e f8 0f cf be 64 c3 89 3e
       -0.07129102 0.2831815 -0.4044187 0.26906884
000390 48 b5 fd 3c 64 ab 55 3e 7c c4 bb 3e 68 02 d5 be
       0.03097023 0.20866162 0.36673343 -0.41603398
0003a0 1b f8 6e bd 3e a4 bb 3e 98 de f7 be 57 c0 ce 3d
       -0.05834208 0.36648744 -0.48412013 0.1009528
0003b0 71 a5 6d 3e 75 58 be be b0 3d 9f be 8c cc 3b be
       0.23207642 -0.37176862 -0.3110175 -0.18339747
0003c0 74 24 c1 bd 58 91 ac be 85 96 2d 3d 67 6f cc 3e
       -0.09430781 -0.33704638 0.042379875 0.39928743
0003d0 0d b7 c8 be c8 7a bd be 59 8a aa be d0 2e 27 3e
       -0.39202157 -0.37007737 -0.33308676 0.16326451
0003e0 48 a6 e9 bd 49 b8 02 3e c0 2c 00 3e e8 07 b9 3c
       -0.11408669 0.12765612 0.12517071 0.022586778
0003f0 ba 3f 85 be 34 dd 1f 3e 49 c2 79 be 2b c3 7c be
       -0.26025182 0.15611726 -0.2439052 -0.24683826

model_2/pose/BiasAdd/ReadVariableOp f4 [5]
000000 ca 51 8b 3b a8 0b 05 bd 38 a4 06 3e 35 4f 0b be
       0.0042516934 -0.03248182 0.13148582 -0.13604434
000010 ed cc 43 bc
       -0.011950714

model_2/dense_9/BiasAdd/ReadVariableOp f4 [128]
000000 1e 06 7e 3c d6 13 22 bc 08 76 a8 bc d2 20 d1 3c
       0.015504388 -0.009892425 -0.020564094 0.025528345
000010 16 24 77 3c 42 da 74 3d 66 ff b8 3b 5e 95 fe 3c
       0.015084287 0.05977846 0.0056456802 0.031077083
000020 34 39 49 3d b5 d7 b9 3c 0c a6 b6 3c 96 f9 05 3d
       0.04912682 0.022685865 0.022295974 0.032708727
000030 dd 31 7c 3d 96 dc 1f bb f7 09 0b 3d 64 d4 17 bd
       0.06157099 -0.0024392954 0.03394505 -0.037067786
000040 cd d3 42 3d 88 07 61 3c bb 2d 1e bd bd 37 36 bd
       0.04756527 0.013734706 -0.03861783 -0.04448675
000050 e3 04 b2 bb 64 70 96 3d fd 9b d9 3b 8d a1 27 3c
       -0.0054327114 0.073456556 0.0066409097 0.010231388
000060 50 02 9d 3d ba d6 c6 3c f0 83 5e bb 86 98 56 3d
       0.07666457 0.024272311 -0.0033953153 0.05239155
000070 74 b6 26 bc e8 a9 a0 3c 75 52 6b 3d e8 5d 1e bc
       -0.010175336 0.019612268 0.057451684 -0.009665944
000080 52 8e c5 3c 7f 27 5e 3d aa cf ae 3c ad 93 48 bd
       0.024115715 0.054236885 0.021339256 -0.04896896
000090 d7 df 7a bd 71 ca 46 3d 01 15 30 3d b0 3f 9b 3c
       -0.061248627 0.048532907 0.04298878 0.018951267
0000a0 45 58 2f bd bb 2c 79 bd 41 f9 c7 b9 6f ae 67 3d
       -0.04280879 -0.060833674 -0.00038141946 0.056562837
0000b0 c3 ad 0c 3d 4b b9 74 bc a0 85 f0 bc 3b f4 d4 3b
       0.0343454 -0.014936755 -0.029360592 0.006498841
0000c0 02 f6 ab 3c 1d 04 1c ba 2e 19 09 3d 84 17 27 3d
       0.02099133 -0.00059515407 0.03347128 0.04079391
0000d0 3c 20 41 3d 11 c9 1f bd 60 77 22 3c 94 01 1e bb
       0.04714988 -0.03901011 0.0099161565 -0.0024109827
0000e0 bd 54 34 3d bf 46 96 3d bb 0d 17 3c 08 49 90 bd
       0.044026125 0.073377125 0.009219582 -0.070451796
0000f0 fd 81 0d 3d 1e 54 54 3d 5f dd 54 bd 36 03 a3 3c
       0.034547795 0.051838033 -0.05196893 0.019898992
000100 04 90 3d 3d ab 35 cf 3c 91 6c e2 bb 01 d9 a5 3d
       0.046279922 0.025294146 -0.006909915 0.08098031
000110 91 26 f6 3c 24 c7 3f 3d c9 7a 95 3c 41 b7 a0 3b
       0.030047687 0.046820775 0.018247025 0.004904658
000120 01 f2 71 3b b9 eb a2 3c b8 5e 7a bc 23 f0 2b 3d
       0.0036917927 0.019887792 -0.015281372 0.04197706
000130 c0 1f f2 bc d0 cd bd 3b 49 62 45 bc d3 2c 73 bd
       -0.029556155 0.005792357 -0.012047359 -0.05936892
000140 98 ff 46 3c ea d6 ee 3c 24 2b 4d 3d 33 12 0e 3d
       0.012145899 0.029155213 0.05008997 0.034685325
000150 06 db 86 3c 13 4c e8 3c 05 eb 04 3d c4 73 e1 3c
       0.01646186 0.028356588 0.032450695 0.027521022
000160 c8 f3 2f 3d ed 4a 77 3d 26 a8 8b 3d b2 02 8e 3c
       0.042957097 0.06037419 0.06819181 0.01733527
000170 56 8e 92 3c 3c 62 62 bc 73 e3 a6 3b 8a 00 80 3d
       0.017890137 -0.013817366 0.005093032 0.06250103
000180 d9 c7 1d 3d 94 0f 47 bd 1e 21 b5 bc 1e 75 98 3a
       0.038520668 -0.04859884 -0.022110518 0.0011631583
000190 c1 dc 98 3c 7f 0d 11 bc a1 a3 8e 3c a6 b8 f3 3c
       0.018659951 -0.008853315 0.017412009 0.029751133
0001a0 a3 19 96 ba 16 a6 d9 3c 04 ca 11 bd 87 bb 03 3d
       -0.0011451732 0.026568454 -0.035593048 0.032161262
0001b0 ca 52 e6 3c ca ba b1 bc cf bc e5 3c c0 55 3e 3d
       0.028115649 -0.021695513 0.028044133 0.046468496
0001c0 fa 1c 03 3d 01 5f c7 3c ed 70 26 3d 85 59 48 3d
       0.032010056 0.024337294 0.04063504 0.048913497
0001d0 17 1f d1 bc 1f df 8d 3c e2 d6 c0 3c d5 7d cf 3c
       -0.02552752 0.017318306 0.023539964 0.025328556
0001e0 ed f1 74 3d b3 74 8c 3d 1d 6c cb 3b 52 91 50 3c
       0.05980103 0.06858196 0.0062079565 0.01272996
0001f0 f9 fe 29 3d ee 42 8b 3c e0 e6 1d bd 05 4e 03 bd
       0.041502926 0.016999688 -0.038550258 -0.032056827

model_2/dense_10/BiasAdd/ReadVariableOp f4 [256]
000000 c4 62 b6 3b 04 e7 80 3c 0a c4 1d bd 71 33 72 3c
       0.005565973 0.015735157 -0.038517036 0.014782772
000010 bf 48 16 bc 84 95 c7 3c 56 21 4e 3c 4e 35 24 3c
       -0.009172617 0.024363287 0.01258119 0.010022474
000020 74 a6 8d 3d 91 91 fc bc 74 56 b3 bb 96 2e 71 bb
       0.06916514 -0.03083113 -0.0054729525 -0.003680145
000030 33 f5 a3 bc 1f 78 3c 3d 46 77 2c 3d f4 fd e3 3c
       -0.020014381 0.046012994 0.042105936 0.027831055
000040 a7 6c a2 3d 6a 03 a2 3c b3 3c 41 bc 18 25 b6 3c
       0.0793088 0.019777019 -0.011794257 0.022234485
000050 be f3 b6 3c 7b 42 f7 3c c4 0f 20 3d 7a b3 7a bb
       0.022333022 0.030183068 0.039077535 -0.003825395
000060 6f 5e 6d 3b d0 57 3d 3c 09 7f 9c 3b a3 7a f9 3b
       0.0036219617 0.011556581 0.004775886 0.0076134964
000070 3d f2 9a 3b 74 44 a4 3c d7 ed 8e bc 93 4e c0 3c
       0.004728584 0.020052172 -0.017447395 0.023474967
000080 da dc 60 3c 42 45 7c 3d 1f de 07 3d 7a ef da 3b
       0.01372453 0.061589487 0.033170816 0.00668138
000090 67 4e a0 bc 53 41 e4 bc d1 c4 79 3c 68 75 e3 3a
       -0.019568635 -0.02786318 0.015244679 0.0017353715
0000a0 86 57 21 3d 87 70 ef 3b 18 b0 9b 3d b8 11 99 3c
       0.03939011 0.0073071155 0.076019466 0.018685207
0000b0 96 d3 c4 bc b8 55 7b 3c e6 37 0d 3d ec 06 7d 3b
       -0.024026673 0.015340261 0.034477137 0.0038608862
0000c0 e4 25 26 3d ec 4c 25 3c dd fd 18 bd 75 42 10 3d
       0.04056348 0.01008914 -0.037351478 0.03521963
0000d0 b6 00 28 3d 0a 15 a5 3c fb b7 ea 3c 62 cf b2 3c
       0.041016303 0.020151634 0.028652182 0.021827403
0000e0 cf 85 0b 3c 37 4c 77 3d aa 93 a8 3d 7a 1a 4e 3c
       0.008515789 0.06037542 0.0823129 0.012579555
0000f0 b1 61 b3 bc 6c 75 df bb 1e ce 63 3c db c7 18 3d
       -0.021897169 -0.0068194177 0.013904123 0.037299972
000100 df 38 42 bd 95 e2 a6 ba 01 d6 bb 3c 5a 33 1e 3b
       -0.047417518 -0.0012732322 0.022929193 0.0024139495
000110 c0 f8 3b 3c 29 86 10 3d 67 01 8b 3d f3 2a 0f bd
       0.011472881 0.035284195 0.06787377 -0.03495307
000120 a4 65 9b 3c 77 d5 6f bd d5 0c bb 3c 02 a2 00 3d
       0.018969364 -0.058553185 0.022833267 0.031404503
000130 77 5a 0f 3d 11 85 a7 bc 37 3b 19 3d 11 d9 7a 3d
       0.034998383 -0.020449193 0.037409987 0.061242167
000140 87 5c 0e 3d bc 9b 8f 3c f4 67 4d 3b ad 96 d1 bc
       0.03475621 0.017530315 0.0031342478 -0.025584543
000150 f0 88 30 bd 6b a5 fc 3c 74 5e a9 3c 5c 0b 20 3d
       -0.043099344 0.030840596 0.020674922 0.039073333
000160 9a 38 bf 3b 70 f2 c5 3c 2a ee 4f bb 08 fc b4 3c
       0.005835605 0.024163455 -0.003172765 0.022092834
000170 61 2c f6 3c fb ed ab 3c e0 8e 9d 3b af 3e 42 bb
       0.030050458 0.020987501 0.004808292 -0.0029639413
000180 41 9a 44 bc 51 d8 83 bc 4c 5c ab 3c 6a a2 28 bc
       -0.011999668 -0.016094359 0.020918034 -0.010292629
000190 b1 e3 31 3d 0f 02 53 3c 4b 47 53 3d 7e 04 81 3c
       0.043430034 0.012878909 0.051581662 0.015749212
0001a0 aa 6f 55 bc 24 fe 19 bd d8 59 12 3d 92 eb 80 3b
       -0.013027111 -0.037595883 0.035730213 0.003934332
0001b0 5f d0 3e bd 02 8b 29 3d a8 74 1e 3d bf 5e 44 3c
       -0.046585437 0.041392334 0.03868547 0.01198548
0001c0 67 20 3b 3c 8f d3 1f bc 01 5f 42 3d 7e a7 ed 3a
       0.0114213 -0.009755029 0.047453884 0.0018131582
0001d0 48 df 00 3d 0d e7 3e 3c 8d 0e 4c bc 29 24 a2 ba
       0.031462938 0.0116517665 -0.012454641 -0.0012370396
0001e0 1b 66 3b 3c 8a 49 de 3c fd 65 14 3c 31 6f 8d bc
       0.011437918 0.027134676 0.009057519 -0.017264934
0001f0 de 3b c3 3c 9e 36 91 bc c2 9e d5 bc 98 2e da 3b
       0.023832258 -0.017726239 -0.026076678 0.0066583864
000200 39 7d b1 bc 35 c3 51 bc 64 a2 9b 3c fa 56 f3 3b
       -0.021666156 -0.012802889 0.018998332 0.00742614
000210 f6 26 04 3c c3 fe 7c 3d ec d3 88 3d 96 d1 8f bc
       0.00806593 0.061766397 0.06681046 -0.017555993
000220 3f 4f ed bb d8 25 54 3d a2 c2 45 3c 6a 00 88 3d
       -0.007242113 0.051793903 0.01207033 0.06640704
000230 81 f5 c1 bc 7a 2b 58 3c a2 02 6c 3b b6 33 b9 bc
       -0.023676636 0.013193959 0.0036012311 -0.022607666
000240 a6 e1 f6 3b 4c 60 b6 3c 96 ec 4c 3d 4b 9c 25 3d
       0.0075342236 0.022262715 0.050030313 0.040432256
000250 b1 39 ea bc f8 22 7e bb 57 4e 3a bd dc ba e5 3c
       -0.028591963 -0.0038778167 -0.045484867 0.028043203
000260 fb ee 11 bc 0e 87 17 3c 4f 88 b9 3c e0 40 04 3d
       -0.008907075 0.009248508 0.022648005 0.032288432
000270 3f 49 86 bc c8 ec 83 3d b0 6f 47 3d f0 6c 98 bb
       -0.016392348 0.06441647 0.048690498 -0.0046516582
000280 80 d7 2c 3c b3 38 91 3b 01 fe 83 bd 0b a5 ce 3c
       0.010549426 0.004431808 -0.06444932 0.025225183
000290 7b d2 4e 3b d0 f2 b4 bb 42 d6 ff 3c 1e af 20 3d
       0.0031558562 -0.0055221096 0.031230096 0.039229505
0002a0 b5 37 19 bd e9 87 8a bb d4 1c f8 3b af d7 35 bb
       -0.037406642 -0.0042276275 0.007571796 -0.0027746966
0002b0 e3 00 df 3c 2f bd 5c bc b0 2b 12 3d cf 0c 57 3b
       0.027222103 -0.013472839 0.035686195 0.003281403
0002c0 b2 b5 aa 3c 83 af 27 39 b0 ff b2 b9 b0 15 87 3c
       0.020838592 0.00015991744 -0.00034141308 0.016489834
0002d0 39 73 64 3c 39 db 2b 3d 18 c3 0a ba 20 05 4c 3d
       0.013943487 0.041957114 -0.00052933535 0.049809575
0002e0 2d 84 4c 3d 7d 0e b9 3c 4d 26 21 bb 3d df aa 3c
       0.04993074 0.022589916 -0.002458948 0.020858401
0002f0 14 71 f1 3c 08 14 55 3c 55 d8 a3 3c 19 73 54 3d
       0.029472865 0.013005264 0.020000616 0.05186758
000300 d9 97 83 3d 22 52 5b bb 2f e8 8c 3a b8 b6 cf 3b
       0.06425447 -0.0033465703 0.0010750348 0.0063389204
000310 18 12 71 3c 3c 8d fe 3b ec b6 bc bb 9e 72 bf 3c
       0.014713787 0.0077683013 -0.0057591107 0.023370083
000320 26 dc 16 bd bf 15 83 3c 28 53 a1 3c 4e 35 6c bc
       -0.036831044 0.01600158 0.019692972 -0.014417006
000330 a9 fd 19 bc e2 d4 95 3d ff 27 4f 3d ba f2 a4 3c
       -0.009398856 0.07315995 0.050575253 0.020135272
000340 09 8b 05 bc 46 fc b6 3c e3 dd ef 3c a3 66 b5 bd
       -0.008150824 0.02233709 0.029280609 -0.08857467
000350 0b dd 15 bc 6c ed 43 bd 59 6e 66 3c 06 db 16 bd
       -0.009146939 -0.047833845 0.014064395 -0.03682997
000360 b0 7a 13 3d 78 7c 01 3d dd 63 8f 3c b5 d5 bb 3b
       0.036005676 0.031612843 0.017503673 0.005732263
000370 9c 31 a5 bc 68 f3 90 bc 62 ab ce 3c bb a1 e9 3c
       -0.020165257 -0.01769419 0.025228206 0.028519502
000380 0b 90 f9 3c 7d 4e 0f bb 6f dd f2 3c 04 72 0e 3d
       0.030464193 -0.002186685 0.029646603 0.034776703
000390 b6 9c 0f 3d 05 77 f2 bc 57 20 15 bc b8 4c 64 bd
       0.03506156 -0.029597769 -0.009101949 -0.055737227
0003a0 a2 9a 6c bb 9f 08 51 3b 80 74 8f 3c df a3 09 3d
       -0.003610291 0.0031896008 0.017511606 0.033603545
0003b0 a1 17 0f bd c0 f5 8b 3c b0 32 0f 3d f0 54 54 ba
       -0.034934644 0.017084956 0.03496045 -0.0008099815
0003c0 8b 5f 77 ba b7 4d 63 3d ea 88 ce 3d 82 d5 58 3c
       -0.0009436539 0.055494037 0.10084708 0.013234498
0003d0 f3 e9 4a 3d db 44 d0 3c 69 2f 28 bd 01 06 24 3c
       0.049539518 0.025423458 -0.04106084 0.010011197
0003e0 eb 31 13 3d 69 f9 9d 3d b6 71 97 3c 8f ad 19 3c
       0.035936277 0.07713587 0.018486839 0.0093797585
0003f0 67 97 a6 bc b1 9f 8c bb a7 13 37 3d 24 4f 44 3c
       -0.020335866 -0.0042914976 0.044696476 0.011981759

model_2/dense_11/BiasAdd/ReadVariableOp f4 [64]
000000 e8 0d 97 3c 72 b6 a1 bd 46 2b 06 bd 78 a1 5c 3d
       0.018439248 -0.07896127 -0.032756113 0.053864926
000010 f9 ad 98 3d e0 4d 2a 3e b1 75 e1 bc 23 69 d1 3d
       0.07455058 0.1663127 -0.02752194 0.10225131
000020 7d 4a 97 bd e5 c0 eb 3c f4 1e c3 3d b8 73 14 3e
       -0.073872544 0.028778503 0.09527388 0.14497268
000030 6a 62 e8 3d c3 a7 79 3c 6b 0e 3a 3d 79 bd ea 3d
       0.11346896 0.015237751 0.045423906 0.1146192
000040 29 78 1d 3d f8 14 98 3b c1 55 62 3d 98 6e 41 3e
       0.03844467 0.0046411715 0.055257563 0.18889844
000050 bf be a0 3d c3 5d 12 3c 47 b2 3d 3d d2 31 da bb
       0.07848882 0.008933487 0.046312597 -0.006658771
000060 62 20 64 3c f4 d1 31 3e e2 2a a4 3d 82 72 b7 3c
       0.013923736 0.17365247 0.08015992 0.022393469
000070 10 60 62 bb 60 2f 61 3d c7 94 cb 3d 08 b4 92 3d
       -0.003454212 0.05497682 0.099404864 0.071632445
000080 9c d5 1a bc 91 20 21 bc 0a c5 2f 3e 5c 3e 1a bc
       -0.0094503425 -0.009834425 0.17165008 -0.009414282
000090 85 bd ff 3c 26 c5 9f 3d 13 0a 4c 3d af 07 a1 3c
       0.0312183 0.07801275 0.049814295 0.019656984
0000a0 6b 7b be 3d 7d 57 a5 3c f8 65 93 3d b0 67 e5 3d
       0.09300884 0.02018332 0.07197183 0.112014174
0000b0 40 8c 38 bd c5 4b 29 3e 70 b4 02 3e 74 db f0 3d
       -0.045055628 0.1653281 0.12764144 0.11760607
0000c0 11 9b 68 bd eb b7 35 3d 23 d5 0f 3d 95 35 81 bd
       -0.056788508 0.04436485 0.035115372 -0.06309048
0000d0 bb 8f 1f 3e 34 ec 8a 3d b9 8c 7f 3d 10 90 a0 bb
       0.15582173 0.067833334 0.062390063 -0.004899986
0000e0 ba 60 2a 3d d5 7d a3 3c 36 78 d8 3d a3 76 d1 bc
       0.041596152 0.019957462 0.105698034 -0.025569266
0000f0 b8 f1 11 3e 9d d3 9d bc 73 a0 65 3d 04 34 d6 3d
       0.14252365 -0.019265944 0.05606122 0.1045914

model_2/dense_8/BiasAdd/ReadVariableOp f4 [128]
000000 fc e2 14 bd 11 69 29 bd 5d 20 16 bd 2e 4a c8 bc
       -0.03634928 -0.041359965 -0.036651958 -0.024449434
000010 96 c0 b5 bc 4d c0 b9 3c f2 17 43 bc eb ad 03 bc
       -0.022186559 0.022674704 -0.0119075645 -0.008037071
000020 63 34 0a bd e3 13 91 3c 4f 4f 69 bc b7 2a 72 3c
       -0.033741366 0.017709678 -0.0142401 0.014780692
000030 8b 98 15 bd 35 e5 26 bd 2e ff 7d bb d3 54 39 3d
       -0.03652243 -0.040745933 -0.0038756835 0.04524691
000040 1c 75 c7 bc 6b 15 76 bc 55 95 11 bc 00 00 00 00
       -0.024347834 -0.015019755 -0.008885701 0.0
000050 c9 6b 0a bd 43 e4 da 3c e6 74 9c 3b 47 d0 91 3c
       -0.0337942 0.026720172 0.0047746776 0.01779951
000060 00 00 00 00 1c 32 37 bb 64 ea 65 bd 86 78 75 3c
       0.0 -0.0027953451 -0.056131735 0.014982348
000070 00 00 00 00 4d 93 7f bb 00 00 00 00 4d 36 db 3a
       0.0 -0.003899771 0.0 0.0016724557
000080 73 4e 84 bd e5 cd 12 bd 64 07 39 bd 00 00 00 00
       -0.064602755 -0.035840888 -0.045173064 0.0
000090 ae 6b 58 bd a7 0c cf bc eb c3 ab bb ff e2 17 3d
       -0.052837066 -0.025274588 -0.005241861 0.037081715
0000a0 00 00 00 00 cb 6b 47 bc 8c 71 5e bc 4a 34 0b bb
       0.0 -0.012171696 -0.013576876 -0.0021240884
0000b0 bc c8 97 bd 57 4e cb bc 87 e9 9a bc 18 0c ad bb
       -0.07411334 -0.024817629 -0.018910183 -0.0052809827
0000c0 6c b6 13 bd bf 39 5d bc cb 79 42 bd 45 29 a4 3d
       -0.036062643 -0.013502537 -0.047479432 0.08015684
0000d0 00 00 00 00 15 04 f7 bb 00 26 7f bd 74 5d 48 bd
       0.0 -0.0075383284 -0.0622921 -0.04891725
0000e0 2a 27 a3 bc 6e e9 3b bd 00 00 00 00 00 8c e7 bb
       -0.019916136 -0.045876913 0.0 -0.00706625
0000f0 3f 9a bb 3c d2 dc 1e bd 25 12 c3 ba 61 74 24 bb
       0.022900699 -0.03878481 -0.0014882727 -0.0025093781
000100 7a e4 81 bd 32 1e 07 bd 00 00 00 00 94 ab a0 3c
       -0.063424066 -0.03298778 0.0 0.019613065
000110 85 91 fb bc c9 31 16 3d f4 8d e2 bb fe c9 4b bd
       -0.030709038 0.036668573 -0.006913895 -0.04975318
000120 3e 7f be bc c5 6b f8 bb 1d 3b 22 bd 72 3c a0 bd
       -0.023254033 -0.0075812065 -0.039607156 -0.07824029
000130 00 00 00 00 00 00 00 00 2b 2f 80 bd 7a fe 77 bd
       0.0 0.0 -0.062589966 -0.060545422
000140 e5 a5 a6 bc b1 8e 3b bb 00 00 00 00 c8 0d 57 3c
       -0.020342777 -0.0028618986 0.0 0.013125844
000150 36 85 e2 bc 5e bf 1a bc 2f 92 70 3b 1c ae b0 bc
       -0.02765141 -0.00944504 0.0036708226 -0.021567397
000160 3f 8e 15 bd b3 2f 3a bd 1a 78 c3 bb f3 d9 74 bc
       -0.03651261 -0.045455646 -0.005965245 -0.014944541
000170 1f 0e 32 3a c3 f9 86 bc aa 37 ee bc 73 40 6c bb
       0.00067922653 -0.016476518 -0.029079277 -0.0036049157
000180 34 97 59 3d c6 28 2c bb 17 e5 ef 3c 72 0d 7c bc
       0.053122714 -0.002626942 0.029284043 -0.015384065
000190 21 8b 58 bd 6e dd d8 3c cc fc 52 bd f1 ca 77 bd
       -0.05286706 0.026472773 -0.051510617 -0.060496274
0001a0 67 83 37 bd e1 a7 43 3b 25 55 f2 bc 28 49 c3 bc
       -0.04480305 0.0029854702 -0.029581616 -0.023838595
0001b0 9c f3 63 bc d8 4b 2f 3c c0 a6 c7 bb 3f c7 7d ba
       -0.0139130615 0.010699235 -0.006092876 -0.0009680874
0001c0 a2 51 06 bd cd cb e0 bb 60 cf 9f bd d1 59 34 bc
       -0.032792695 -0.0068602324 -0.078032255 -0.011007742
0001d0 39 3f 37 bc 48 83 ef bc 21 72 7c 3c 00 00 00 00
       -0.011184507 -0.029237404 0.01540807 0.0
0001e0 65 7a 14 3c e1 cb 60 bb 00 00 00 00 c8 16 b9 3c
       0.009062384 -0.0034301209 0.0 0.02259387
0001f0 a7 ae f8 bc 9f 56 43 3d 0b 3b fd bc 7c 71 b9 bb
       -0.030356718 0.04769003 -0.030911943 -0.0056592803

model_2/dense_8/MatMul i1 [128, 51] scale=0.002477625 zero_point=0
000000 d8 11 d2 28 db f5 ea 2e 0f be dc 10 45 bb d5 2f
       -0.099105 0.042119622 -0.11397075 0.099105 -0.09167212 -0.027253874 -0.054507747 0.11397075 0.037164375 -0.16352324 -0.0891945 0.039642 0.17095612 -0.17095612 -0.10653787 0.11644837
000010 36 fe dc f3 d2 d4 e3 e3 d7 2d 24 b0 ed 3a fd f2
       0.13379174 -0.00495525 -0.0891945 -0.032209124 -0.11397075 -0.109015495 -0.07185112 -0.07185112 -0.101582624 0.11149312 0.0891945 -0.19821 -0.047074873 0.14370224 -0.0074328748 -0.034686748
000020 f5 e4 e3 2d 19 f9 1d 5c b0 fb 70 c1 00 34 2e 2e
       -0.027253874 -0.069373496 -0.07185112 0.11149312 0.06194062 -0.017343374 0.07185112 0.2279415 -0.19821 -0.012388125 0.27749398 -0.15609036 0.0 0.1288365 0.11397075 0.11397075
000030 ff 2d 04 0b e4 30 3c f9 1a 4a f8 de e7 14 d8 09
       -0.002477625 0.11149312 0.0099105 0.027253874 -0.069373496 0.118925996 0.1486575 -0.017343374 0.06441825 0.18334424 -0.019821 -0.084239244 -0.06194062 0.0495525 -0.099105 0.022298625
000040 d7 12 15 32 f3 b8 2e 0b 2c e3 39 2a f1 08 6b 1b
       -0.101582624 0.04459725 0.052030124 0.12388124 -0.032209124 -0.178389 0.11397075 0.027253874 0.109015495 -0.07185112 0.14122462 0.10406025 -0.037164375 0.019821 0.26510587 0.06689587
000050 fc 21 df e0 aa df 13 27 f9 22 f0 ea 22 14 ba 18
       -0.0099105 0.08176162 -0.08176162 -0.079284 -0.21307574 -0.08176162 0.047074873 0.09662737 -0.017343374 0.084239244 -0.039642 -0.054507747 0.084239244 0.0495525 -0.17343375 0.059462998
000060 d9 b6 c9 a2 1e 0a 38 be 39 e6 f7 cb d8 04 14 29
       -0.09662737 -0.18334424 -0.13626938 -0.23289675 0.07432875 0.02477625 0.13874699 -0.16352324 0.14122462 -0.06441825 -0.022298625 -0.13131411 -0.099105 0.0099105 0.0495525 0.101582624
000070 d7 1c b1 2a 24 39 07 bd d4 be dc ae 37 2c 1e df
       -0.101582624 0.069373496 -0.19573237 0.10406025 0.0891945 0.14122462 0.017343374 -0.16600087 -0.109015495 -0.16352324 -0.0891945 -0.20316525 0.13626938 0.109015495 0.07432875 -0.08176162
000080 28 17 cd e8 3a f2 dc 01 03 df e0 d0 f5 f6 19 d6
       0.099105 0.056985375 -0.12635887 -0.059462998 0.14370224 -0.034686748 -0.0891945 0.002477625 0.0074328748 -0.08176162 -0.079284 -0.118925996 -0.027253874 -0.02477625 0.06194062 -0.10406025
000090 5f ef f4 46 b2 27 45 33 0f f1 b6 f8 d9 c0 13 19
       0.23537436 -0.042119622 -0.029731499 0.17343375 -0.19325474 0.09662737 0.17095612 0.12635887 0.037164375 -0.037164375 -0.18334424 -0.019821 -0.09662737 -0.158568 0.047074873 0.06194062
0000a0 30 13 32 ae c2 c1 03 13 24 c6 28 ce 02 e8 cb 02
       0.118925996 0.047074873 0.12388124 -0.20316525 -0.15361275 -0.15609036 0.0074328748 0.047074873 0.0891945 -0.14370224 0.099105 -0.12388124 0.00495525 -0.059462998 -0.13131411 0.00495525
0000b0 19 2f 38 3e c0 29 15 04 0d 4e ca b4 26 15 1d 17
       0.06194062 0.11644837 0.13874699 0.15361275 -0.158568 0.101582624 0.052030124 0.0099105 0.032209124 0.19325474 -0.13379174 -0.18829949 0.094149746 0.052030124 0.07185112 0.056985375
0000c0 49 e9 f4 43 f7 c1 1d cf 06 46 f1 d9 1a e3 f4 ef
       0.18086661 -0.056985375 -0.029731499 0.16600087 -0.022298625 -0.15609036 0.07185112 -0.12140362 0.0148657495 0.17343375 -0.037164375 -0.09662737 0.06441825 -0.07185112 -0.029731499 -0.042119622
0000d0 19 0f d1 f3 fa 11 c4 18 23 2a c9 21 a7 c7 0d cc
       0.06194062 0.037164375 -0.11644837 -0.032209124 -0.0148657495 0.042119622 -0.1486575 0.059462998 0.086716875 0.10406025 -0.13626938 0.08176162 -0.22050862 -0.14122462 0.032209124 -0.1288365
0000e0 3a da 26 28 25 d3 be d8 f7 dd eb f7 16 43 06 fe
       0.14370224 -0.094149746 0.094149746 0.099105 0.09167212 -0.11149312 -0.16352324 -0.099105 -0.022298625 -0.086716875 -0.052030124 -0.022298625 0.054507747 0.16600087 0.0148657495 -0.00495525
0000f0 69 ef fd 01 18 1d c2 f8 35 c5 4c 0f 05 11 24 08
       0.2601506 -0.042119622 -0.0074328748 0.002477625 0.059462998 0.07185112 -0.15361275 -0.019821 0.13131411 -0.14617987 0.18829949 0.037164375 0.012388125 0.042119622 0.0891945 0.019821

model_2/dense_9/MatMul i1 [128, 128] scale=0.0033410874 zero_point=0
000000 1f 1c 06 ea fe 0e f5 f1 20 e9 12 35 22 00 0d 29
       0.10357371 0.09355044 0.020046525 -0.07350392 -0.0066821747 0.04677522 -0.03675196 -0.05011631 0.106914796 -0.07684501 0.060139574 0.17707764 0.11359697 0.0 0.043434136 0.13698459
000010 e7 ef 13 e8 e7 d9 41 02 db 56 e0 00 e7 22 26 e7
       -0.083527185 -0.056798484 0.06348066 -0.0801861 -0.083527185 -0.13030241 0.21717069 0.0066821747 -0.123620234 0.28733352 -0.106914796 0.0 -0.083527185 0.11359697 0.12696132 -0.083527185
000020 34 39 04 fa fd f7 22 f5 2a fa f6 e6 1c f3 19 e2
       0.17373654 0.19044198 0.0133643495 -0.020046525 -0.010023262 -0.030069787 0.11359697 -0.03675196 0.14032567 -0.020046525 -0.033410873 -0.08686827 0.09355044 -0.043434136 0.083527185 -0.10023262
000030 e0 31 08 11 01 1c f2 f0 24 e4 fb 59 f7 12 e9 f1
       -0.106914796 0.16371328 0.026728699 0.056798484 0.0033410874 0.09355044 -0.04677522 -0.053457398 0.12027915 -0.09355044 -0.016705437 0.29735678 -0.030069787 0.060139574 -0.07684501 -0.05011631
000040 31 03 ef 01 26 0b 35 f6 08 f0 13 e4 e7 20 1b 0f
       0.16371328 0.010023262 -0.056798484 0.0033410874 0.12696132 0.03675196 0.17707764 -0.033410873 0.026728699 -0.053457398 0.06348066 -0.09355044 -0.083527185 0.106914796 0.09020936 0.05011631
000050 4c dd 06 09 ec ee 41 02 5e 37 f4 f8 e9 0a 03 f9
       0.25392264 -0.116938055 0.020046525 0.030069787 -0.06682175 -0.060139574 0.21717069 0.0066821747 0.3140622 0.18375981 -0.04009305 -0.026728699 -0.07684501 0.033410873 0.010023262 -0.02338761
000060 02 fe ca 40 07 e7 17 e8 0c 08 3b fd 06 1a 22 fa
       0.0066821747 -0.0066821747 -0.18041871 0.21382959 0.02338761 -0.083527185 0.07684501 -0.0801861 0.04009305 0.026728699 0.19712415 -0.010023262 0.020046525 0.08686827 0.11359697 -0.020046525
000070 09 19 1d db 46 04 01 db e6 1b 0c f9 00 e6 23 24
       0.030069787 0.083527185 0.09689154 -0.123620234 0.23387611 0.0133643495 0.0033410874 -0.123620234 -0.08686827 0.09020936 0.04009305 -0.02338761 0.0 -0.08686827 0.116938055 0.12027915
000080 e5 22 ed 01 1f f8 1c 24 26 fc 0d 21 e4 3c ec 2d
       -0.09020936 0.11359697 -0.06348066 0.0033410874 0.10357371 -0.026728699 0.09355044 0.12027915 0.12696132 -0.0133643495 0.043434136 0.11025588 -0.09355044 0.20046525 -0.06682175 0.15034893
000090 13 01 31 19 e3 17 fe fa d5 0b 0e 37 d6 e3 f6 f5
       0.06348066 0.0033410874 0.16371328 0.083527185 -0.09689154 0.07684501 -0.0066821747 -0.020046525 -0.14366676 0.03675196 0.04677522 0.18375981 -0.14032567 -0.09689154 -0.033410873 -0.03675196
0000a0 08 12 ed 14 fd 22 d9 f6 18 15 16 e8 14 31 ce 18
       0.026728699 0.060139574 -0.06348066 0.06682175 -0.010023262 0.11359697 -0.13030241 -0.033410873 0.0801861 0.07016283 0.07350392 -0.0801861 0.06682175 0.16371328 -0.16705437 0.0801861
0000b0 18 db f4 03 0f 1d e4 0a f6 17 d5 16 05 2d 33 eb
       0.0801861 -0.123620234 -0.04009305 0.010023262 0.05011631 0.09689154 -0.09355044 0.033410873 -0.033410873 0.07684501 -0.14366676 0.07350392 0.016705437 0.15034893 0.17039545 -0.07016283
0000c0 c6 f8 e1 24 c6 0e eb f7 13 cf ed fe 24 13 19 e9
       -0.19378307 -0.026728699 -0.10357371 0.12027915 -0.19378307 0.04677522 -0.07016283 -0.030069787 0.06348066 -0.16371328 -0.06348066 -0.0066821747 0.12027915 0.06348066 0.083527185 -0.07684501
0000d0 d1 15 ea e6 eb f7 19 dd 03 eb e0 e1 15 e0 06 e4
       -0.1570311 0.07016283 -0.07350392 -0.08686827 -0.07016283 -0.030069787 0.083527185 -0.116938055 0.010023262 -0.07016283 -0.106914796 -0.10357371 0.07016283 -0.106914796 0.020046525 -0.09355044
0000e0 01 f2 df ff d5 19 fe e8 e8 44 01 23 19 28 02 e9
       0.0033410874 -0.04677522 -0.11025588 -0.0033410874 -0.14366676 0.083527185 -0.0066821747 -0.0801861 -0.0801861 0.22719394 0.0033410874 0.116938055 0.083527185 0.1336435 0.0066821747 -0.07684501
0000f0 e7 f0 fb 29 f2 22 3f 2d 07 0a 0c 16 31 45 d1 0f
       -0.083527185 -0.053457398 -0.016705437 0.13698459 -0.04677522 0.11359697 0.2104885 0.15034893 0.02338761 0.033410873 0.04009305 0.07350392 0.16371328 0.23053503 -0.1570311 0.05011631

model_2/dense_10/MatMul i1 [256, 128] scale=0.0024634562 zero_point=0
000000 e6 fe 32 20 31 07 d5 df 13 da 11 03 14 d1 23 c3
       -0.06404986 -0.0049269125 0.12317281 0.0788306 0.12070936 0.017244194 -0.105928615 -0.08129406 0.04680567 -0.09361134 0.041878756 0.0073903687 0.049269125 -0.11578244 0.086220965 -0.15027083
000010 f8 ee f9 1d fc f2 c1 db 11 d2 04 f8 f5 d5 cd 0e
       -0.01970765 -0.044342212 -0.017244194 0.071440235 -0.009853825 -0.034488387 -0.15519774 -0.091147885 0.041878756 -0.11331899 0.009853825 -0.01970765 -0.027098019 -0.105928615 -0.12563626 0.034488387
000020 42 32 0d e5 ec 18 01 43 4a fc 17 1f ce f6 09 24
       0.16258812 0.12317281 0.03202493 -0.066513315 -0.049269125 0.05912295 0.0024634562 0.16505156 0.18229577 -0.009853825 0.056659494 0.07636714 -0.12317281 -0.024634562 0.022171106 0.088684425
000030 bf ed e2 eb 09 fc fe ea e1 2f bd 41 d2 15 1f d7
       -0.16012466 -0.04680567 -0.07390369 -0.05173258 0.022171106 -0.009853825 -0.0049269125 -0.054196037 -0.07636714 0.11578244 -0.16505156 0.16012466 -0.11331899 0.05173258 0.07636714 -0.10100171
000040 f9 3f ec 18 e8 19 0e 0a 2b ed 31 e5 e6 d9 d8 2e
       -0.017244194 0.15519774 -0.049269125 0.05912295 -0.05912295 0.061586406 0.034488387 0.024634562 0.105928615 -0.04680567 0.12070936 -0.066513315 -0.06404986 -0.09607479 -0.09853825 0.11331899
000050 c4 e2 e2 30 e5 07 da d0 08 ea 1c f3 08 ef 1e fe
       -0.14780737 -0.07390369 -0.07390369 0.1182459 -0.066513315 0.017244194 -0.09361134 -0.1182459 0.01970765 -0.054196037 0.068976775 -0.03202493 0.01970765 -0.041878756 0.07390369 -0.0049269125
000060 14 3b 0a 0a 22 1a 48 c2 2f da 30 ea 2b 37 29 17
       0.049269125 0.14534391 0.024634562 0.024634562 0.08375751 0.06404986 0.17736885 -0.15273428 0.11578244 -0.09361134 0.1182459 -0.054196037 0.105928615 0.13549009 0.10100171 0.056659494
000070 f8 d4 07 0b 01 06 e5 04 12 12 23 16 bd 34 ef ea
       -0.01970765 -0.108392075 0.017244194 0.027098019 0.0024634562 0.014780737 -0.066513315 0.009853825 0.044342212 0.044342212 0.086220965 0.054196037 -0.16505156 0.12809972 -0.041878756 -0.054196037
000080 24 d7 df ee 24 d6 bb 08 f7 a7 25 19 30 f1 09 f8
       0.088684425 -0.10100171 -0.08129406 -0.044342212 0.088684425 -0.10346516 -0.16997848 0.01970765 -0.022171106 -0.21924761 0.091147885 0.061586406 0.1182459 -0.036951844 0.022171106 -0.01970765
000090 f4 0c 02 f9 fb 0d c1 c4 05 c2 ce e3 f9 c6 17 d9
       -0.029561475 0.029561475 0.0049269125 -0.017244194 -0.012317281 0.03202493 -0.15519774 -0.14780737 0.012317281 -0.15273428 -0.12317281 -0.071440235 -0.017244194 -0.14288047 0.056659494 -0.09607479
0000a0 37 fe e2 fe 12 39 3a e8 14 28 31 00 13 b2 c1 1d
       0.13549009 -0.0049269125 -0.07390369 -0.0049269125 0.044342212 0.14041701 0.14288047 -0.05912295 0.049269125 0.09853825 0.12070936 0.0 0.04680567 -0.19214958 -0.15519774 0.071440235
0000b0 af df 02 e3 34 ea ee db e1 2b a4 e4 29 49 22 c2
       -0.19953996 -0.08129406 0.0049269125 -0.071440235 0.12809972 -0.054196037 -0.044342212 -0.091147885 -0.07636714 0.105928615 -0.22663797 -0.068976775 0.10100171 0.17983231 0.08375751 -0.15273428
0000c0 ff 20 e3 3a d7 d0 d4 d6 d4 4b 1c fd 1c c4 fa 0b
       -0.0024634562 0.0788306 -0.071440235 0.14288047 -0.10100171 -0.1182459 -0.108392075 -0.10346516 -0.108392075 0.18475921 0.068976775 -0.0073903687 0.068976775 -0.14780737 -0.014780737 0.027098019
0000d0 c9 f9 f2 1c ee ef cf 2b ff c5 09 01 f8 ef 36 3a
       -0.13549009 -0.017244194 -0.034488387 0.068976775 -0.044342212 -0.041878756 -0.12070936 0.105928615 -0.0024634562 -0.14534391 0.022171106 0.0024634562 -0.01970765 -0.041878756 0.13302663 0.14288047
0000e0 ed 2b e4 d4 ce e5 11 e0 f3 df c2 08 2e e8 2f 26
       -0.04680567 0.105928615 -0.068976775 -0.108392075 -0.12317281 -0.066513315 0.041878756 -0.0788306 -0.03202493 -0.08129406 -0.15273428 0.01970765 0.11331899 -0.05912295 0.11578244 0.09361134
0000f0 ed d5 17 37 b8 d0 dc 03 04 f9 25 24 d0 2c fc 0f
       -0.04680567 -0.105928615 0.056659494 0.13549009 -0.17736885 -0.1182459 -0.088684425 0.0073903687 0.009853825 -0.017244194 0.091147885 0.088684425 -0.1182459 0.108392075 -0.009853825 0.036951844

model_2/dense_11/MatMul i1 [64, 256] scale=0.0032240257 zero_point=0
000000 1f f2 3a e2 f0 f3 1f 2f 08 09 ec 16 15 e5 01 07
       0.0999448 -0.04513636 0.1869935 -0.09672077 -0.05158441 -0.041912336 0.0999448 0.15152921 0.025792206 0.029016232 -0.06448051 0.070928566 0.06770454 -0.087048694 0.0032240257 0.02256818
000010 fd e7 2b d8 11 16 d0 27 27 0c 05 16 22 f8 07 27
       -0.009672077 -0.08060064 0.1386331 -0.12896103 0.054808438 0.070928566 -0.15475324 0.125737 0.125737 0.03868831 0.016120128 0.070928566 0.109616876 -0.025792206 0.02256818 0.125737
000020 1c 30 d9 0f 07 df ca d9 f2 ed f2 0c e4 cb 00 eb
       0.09027272 0.15475324 -0.125737 0.048360385 0.02256818 -0.106392846 -0.17409739 -0.125737 -0.04513636 -0.061256487 -0.04513636 0.03868831 -0.09027272 -0.17087336 0.0 -0.06770454
000030 fd 14 e2 00 02 01 21 f6 09 ec 0f e6 48 13 48 f3
       -0.009672077 0.06448051 -0.09672077 0.0 0.0064480514 0.0032240257 0.106392846 -0.032240257 0.029016232 -0.06448051 0.048360385 -0.08382467 0.23212986 0.061256487 0.23212986 -0.041912336
000040 2e 3a 1d 1a 3e 10 27 1a 0e 39 38 1a f5 00 3a 1c
       0.14830518 0.1869935 0.09349675 0.08382467 0.1998896 0.05158441 0.125737 0.08382467 0.04513636 0.18376946 0.18054543 0.08382467 -0.035464283 0.0 0.1869935 0.09027272
000050 f6 32 0c 1e 1a f4 4f 24 2d 20 1a 2d d1 1d 45 17
       -0.032240257 0.16120128 0.03868831 0.09672077 0.08382467 -0.03868831 0.25469804 0.11606493 0.14508116 0.10316882 0.08382467 0.14508116 -0.15152921 0.09349675 0.22245778 0.07415259
000060 34 16 20 0d 4e fa fc d9 dd 07 d2 f3 27 d2 fb e1
       0.16764934 0.070928566 0.10316882 0.041912336 0.251474 -0.019344155 -0.012896103 -0.125737 -0.1128409 0.02256818 -0.14830518 -0.041912336 0.125737 -0.14830518 -0.016120128 -0.0999448
000070 1d 54 2d e4 f5 24 39 1e f6 f7 d9 e5 e1 2e 66 29
       0.09349675 0.27081817 0.14508116 -0.09027272 -0.035464283 0.11606493 0.18376946 0.09672077 -0.032240257 -0.029016232 -0.125737 -0.087048694 -0.0999448 0.14830518 0.32885063 0.13218506
000080 1a 05 d9 d0 13 18 f3 0b f2 39 22 f4 1b 0e 09 f0
       0.08382467 0.016120128 -0.125737 -0.15475324 0.061256487 0.07737662 -0.041912336 0.035464283 -0.04513636 0.18376946 0.109616876 -0.03868831 0.087048694 0.04513636 0.029016232 -0.05158441
000090 cf 0b d2 f9 1a fb f2 18 1d f2 c0 e3 1c e6 1a 29
       -0.15797725 0.035464283 -0.14830518 -0.02256818 0.08382467 -0.016120128 -0.04513636 0.07737662 0.09349675 -0.04513636 -0.20633765 -0.09349675 0.09027272 -0.08382467 0.08382467 0.13218506
0000a0 14 47 f5 2b 09 36 dc ef 04 f9 23 fe db 42 e1 09
       0.06448051 0.22890583 -0.035464283 0.1386331 0.029016232 0.17409739 -0.11606493 -0.054808438 0.012896103 -0.02256818 0.1128409 -0.0064480514 -0.11928895 0.21278569 -0.0999448 0.029016232
0000b0 f8 45 c1 58 17 fa 03 f7 fc 11 fa fb bd 13 e6 03
       -0.025792206 0.22245778 -0.20311362 0.28371426 0.07415259 -0.019344155 0.009672077 -0.029016232 -0.012896103 0.054808438 -0.019344155 -0.016120128 -0.21600972 0.061256487 -0.08382467 0.009672077
0000c0 e6 21 4a 13 07 fa 22 20 3b fa fd 18 13 11 f9 23
       -0.08382467 0.106392846 0.2385779 0.061256487 0.02256818 -0.019344155 0.109616876 0.10316882 0.19021751 -0.019344155 -0.009672077 0.07737662 0.061256487 0.054808438 -0.02256818 0.1128409
0000d0 3a f8 e4 2b 2f 3b f8 17 d5 e6 1b ed 07 37 0c f7
       0.1869935 -0.025792206 -0.09027272 0.1386331 0.15152921 0.19021751 -0.025792206 0.07415259 -0.1386331 -0.08382467 0.087048694 -0.061256487 0.02256818 0.17732142 0.03868831 -0.029016232
0000e0 e5 ea cf 1a 51 f6 ee 0f fc e6 2b 29 0a 1c 2d 0b
       -0.087048694 -0.070928566 -0.15797725 0.08382467 0.26114607 -0.032240257 -0.058032464 0.048360385 -0.012896103 -0.08382467 0.1386331 0.13218506 0.032240257 0.09027272 0.14508116 0.035464283
0000f0 ec 1e fa e9 ca ce 23 0d 06 ca 37 3a 3b fb 32 01
       -0.06448051 0.09672077 -0.019344155 -0.07415259 -0.17409739 -0.16120128 0.1128409 0.041912336 0.019344155 -0.17409739 0.17732142 0.1869935 0.19021751 -0.016120128 0.16120128 0.0032240257
